<?xml version="1.0" ?>
<net name="facial-landmarks-35-adas-0002" version="10">
	<layers>
		<layer id="0" name="data" type="Parameter" version="opset1">
			<data element_type="f16" shape="1,3,60,60"/>
			<output>
				<port id="0" names="data" precision="FP16">
					<dim>1</dim>
					<dim>3</dim>
					<dim>60</dim>
					<dim>60</dim>
				</port>
			</output>
		</layer>
		<layer id="1" name="data_mul_7505_const463_const" type="Const" version="opset1">
			<data element_type="f16" offset="0" shape="1,3,1,1" size="6"/>
			<output>
				<port id="0" precision="FP16">
					<dim>1</dim>
					<dim>3</dim>
					<dim>1</dim>
					<dim>1</dim>
				</port>
			</output>
		</layer>
		<layer id="2" name="data/scale/Fused_Mul_" type="Multiply" version="opset1">
			<data auto_broadcast="numpy"/>
			<input>
				<port id="0">
					<dim>1</dim>
					<dim>3</dim>
					<dim>60</dim>
					<dim>60</dim>
				</port>
				<port id="1">
					<dim>1</dim>
					<dim>3</dim>
					<dim>1</dim>
					<dim>1</dim>
				</port>
			</input>
			<output>
				<port id="2" precision="FP16">
					<dim>1</dim>
					<dim>3</dim>
					<dim>60</dim>
					<dim>60</dim>
				</port>
			</output>
		</layer>
		<layer id="3" name="data_add_7507_const465_const" type="Const" version="opset1">
			<data element_type="f16" offset="6" shape="1,3,1,1" size="6"/>
			<output>
				<port id="0" precision="FP16">
					<dim>1</dim>
					<dim>3</dim>
					<dim>1</dim>
					<dim>1</dim>
				</port>
			</output>
		</layer>
		<layer id="4" name="data/mean/Fused_Add_" type="Add" version="opset1">
			<data auto_broadcast="numpy"/>
			<input>
				<port id="0">
					<dim>1</dim>
					<dim>3</dim>
					<dim>60</dim>
					<dim>60</dim>
				</port>
				<port id="1">
					<dim>1</dim>
					<dim>3</dim>
					<dim>1</dim>
					<dim>1</dim>
				</port>
			</input>
			<output>
				<port id="2" names="data" precision="FP16">
					<dim>1</dim>
					<dim>3</dim>
					<dim>60</dim>
					<dim>60</dim>
				</port>
			</output>
		</layer>
		<layer id="5" name="31043108_const" type="Const" version="opset1">
			<data element_type="f16" offset="12" shape="" size="2"/>
			<output>
				<port id="0" precision="FP16"/>
			</output>
		</layer>
		<layer id="6" name="31053109_const" type="Const" version="opset1">
			<data element_type="f16" offset="14" shape="" size="2"/>
			<output>
				<port id="0" precision="FP16"/>
			</output>
		</layer>
		<layer id="7" name="31063110_const" type="Const" version="opset1">
			<data element_type="f16" offset="12" shape="" size="2"/>
			<output>
				<port id="0" precision="FP16"/>
			</output>
		</layer>
		<layer id="8" name="31073111_const" type="Const" version="opset1">
			<data element_type="f16" offset="14" shape="" size="2"/>
			<output>
				<port id="0" precision="FP16"/>
			</output>
		</layer>
		<layer id="9" name="conv1/WithoutBiases/fq_input_0" type="FakeQuantize" version="opset1">
			<data auto_broadcast="numpy" levels="256"/>
			<input>
				<port id="0">
					<dim>1</dim>
					<dim>3</dim>
					<dim>60</dim>
					<dim>60</dim>
				</port>
				<port id="1"/>
				<port id="2"/>
				<port id="3"/>
				<port id="4"/>
			</input>
			<output>
				<port id="5" precision="FP16">
					<dim>1</dim>
					<dim>3</dim>
					<dim>60</dim>
					<dim>60</dim>
				</port>
			</output>
		</layer>
		<layer id="10" name="bn1/mean/Fused_Mul_84448446_const4676982/quantized9814_const" type="Const" version="opset1">
			<data element_type="i8" offset="16" shape="16,3,3,3" size="432"/>
			<output>
				<port id="0" precision="I8">
					<dim>16</dim>
					<dim>3</dim>
					<dim>3</dim>
					<dim>3</dim>
				</port>
			</output>
		</layer>
		<layer id="11" name="bn1/mean/Fused_Mul_84448446_const4676982/quantized/to_f16" type="Convert" version="opset1">
			<data destination_type="f16"/>
			<input>
				<port id="0">
					<dim>16</dim>
					<dim>3</dim>
					<dim>3</dim>
					<dim>3</dim>
				</port>
			</input>
			<output>
				<port id="1" precision="FP16">
					<dim>16</dim>
					<dim>3</dim>
					<dim>3</dim>
					<dim>3</dim>
				</port>
			</output>
		</layer>
		<layer id="12" name="conv1/WithoutBiases/fq_weights_1/zero_point9827_const" type="Const" version="opset1">
			<data element_type="f16" offset="448" shape="16,1,1,1" size="32"/>
			<output>
				<port id="0" precision="FP16">
					<dim>16</dim>
					<dim>1</dim>
					<dim>1</dim>
					<dim>1</dim>
				</port>
			</output>
		</layer>
		<layer id="13" name="conv1/WithoutBiases/fq_weights_1/minus_zp" type="Subtract" version="opset1">
			<data auto_broadcast="numpy"/>
			<input>
				<port id="0">
					<dim>16</dim>
					<dim>3</dim>
					<dim>3</dim>
					<dim>3</dim>
				</port>
				<port id="1">
					<dim>16</dim>
					<dim>1</dim>
					<dim>1</dim>
					<dim>1</dim>
				</port>
			</input>
			<output>
				<port id="2" precision="FP16">
					<dim>16</dim>
					<dim>3</dim>
					<dim>3</dim>
					<dim>3</dim>
				</port>
			</output>
		</layer>
		<layer id="14" name="conv1/WithoutBiases/fq_weights_1/scale9822_const" type="Const" version="opset1">
			<data element_type="f16" offset="480" shape="16,1,1,1" size="32"/>
			<output>
				<port id="0" precision="FP16">
					<dim>16</dim>
					<dim>1</dim>
					<dim>1</dim>
					<dim>1</dim>
				</port>
			</output>
		</layer>
		<layer id="15" name="conv1/WithoutBiases/fq_weights_1/mulpiply_by_scale" type="Multiply" version="opset1">
			<data auto_broadcast="numpy"/>
			<input>
				<port id="0">
					<dim>16</dim>
					<dim>3</dim>
					<dim>3</dim>
					<dim>3</dim>
				</port>
				<port id="1">
					<dim>16</dim>
					<dim>1</dim>
					<dim>1</dim>
					<dim>1</dim>
				</port>
			</input>
			<output>
				<port id="2" precision="FP16">
					<dim>16</dim>
					<dim>3</dim>
					<dim>3</dim>
					<dim>3</dim>
				</port>
			</output>
		</layer>
		<layer id="16" name="conv1/WithoutBiases" type="Convolution" version="opset1">
			<data auto_pad="explicit" dilations="1,1" pads_begin="1,1" pads_end="1,1" strides="1,1"/>
			<input>
				<port id="0">
					<dim>1</dim>
					<dim>3</dim>
					<dim>60</dim>
					<dim>60</dim>
				</port>
				<port id="1">
					<dim>16</dim>
					<dim>3</dim>
					<dim>3</dim>
					<dim>3</dim>
				</port>
			</input>
			<output>
				<port id="2" precision="FP16">
					<dim>1</dim>
					<dim>16</dim>
					<dim>60</dim>
					<dim>60</dim>
				</port>
			</output>
		</layer>
		<layer id="17" name="data_add_751075157793/EltwiseUnsqueeze8139_const469_const" type="Const" version="opset1">
			<data element_type="f16" offset="512" shape="1,16,1,1" size="32"/>
			<output>
				<port id="0" precision="FP16">
					<dim>1</dim>
					<dim>16</dim>
					<dim>1</dim>
					<dim>1</dim>
				</port>
			</output>
		</layer>
		<layer id="18" name="conv1/Fused_Add_" type="Add" version="opset1">
			<data auto_broadcast="numpy"/>
			<input>
				<port id="0">
					<dim>1</dim>
					<dim>16</dim>
					<dim>60</dim>
					<dim>60</dim>
				</port>
				<port id="1">
					<dim>1</dim>
					<dim>16</dim>
					<dim>1</dim>
					<dim>1</dim>
				</port>
			</input>
			<output>
				<port id="2" names="conv1" precision="FP16">
					<dim>1</dim>
					<dim>16</dim>
					<dim>60</dim>
					<dim>60</dim>
				</port>
			</output>
		</layer>
		<layer id="19" name="relu_conv1" type="ReLU" version="opset1">
			<input>
				<port id="0">
					<dim>1</dim>
					<dim>16</dim>
					<dim>60</dim>
					<dim>60</dim>
				</port>
			</input>
			<output>
				<port id="1" names="relu1" precision="FP16">
					<dim>1</dim>
					<dim>16</dim>
					<dim>60</dim>
					<dim>60</dim>
				</port>
			</output>
		</layer>
		<layer id="20" name="26442648_const" type="Const" version="opset1">
			<data element_type="f16" offset="544" shape="" size="2"/>
			<output>
				<port id="0" precision="FP16"/>
			</output>
		</layer>
		<layer id="21" name="26452649_const" type="Const" version="opset1">
			<data element_type="f16" offset="546" shape="" size="2"/>
			<output>
				<port id="0" precision="FP16"/>
			</output>
		</layer>
		<layer id="22" name="26462650_const" type="Const" version="opset1">
			<data element_type="f16" offset="544" shape="" size="2"/>
			<output>
				<port id="0" precision="FP16"/>
			</output>
		</layer>
		<layer id="23" name="26472651_const" type="Const" version="opset1">
			<data element_type="f16" offset="546" shape="" size="2"/>
			<output>
				<port id="0" precision="FP16"/>
			</output>
		</layer>
		<layer id="24" name="pool1/WithoutBiases/fq_input_0" type="FakeQuantize" version="opset1">
			<data auto_broadcast="numpy" levels="256"/>
			<input>
				<port id="0">
					<dim>1</dim>
					<dim>16</dim>
					<dim>60</dim>
					<dim>60</dim>
				</port>
				<port id="1"/>
				<port id="2"/>
				<port id="3"/>
				<port id="4"/>
			</input>
			<output>
				<port id="5" precision="FP16">
					<dim>1</dim>
					<dim>16</dim>
					<dim>60</dim>
					<dim>60</dim>
				</port>
			</output>
		</layer>
		<layer id="25" name="357/quantized8662_const" type="Const" version="opset1">
			<data element_type="i8" offset="548" shape="16,16,3,3" size="2304"/>
			<output>
				<port id="0" precision="I8">
					<dim>16</dim>
					<dim>16</dim>
					<dim>3</dim>
					<dim>3</dim>
				</port>
			</output>
		</layer>
		<layer id="26" name="357/quantized/to_f16" type="Convert" version="opset1">
			<data destination_type="f16"/>
			<input>
				<port id="0">
					<dim>16</dim>
					<dim>16</dim>
					<dim>3</dim>
					<dim>3</dim>
				</port>
			</input>
			<output>
				<port id="1" precision="FP16">
					<dim>16</dim>
					<dim>16</dim>
					<dim>3</dim>
					<dim>3</dim>
				</port>
			</output>
		</layer>
		<layer id="27" name="pool1/WithoutBiases/fq_weights_1/zero_point8675_const" type="Const" version="opset1">
			<data element_type="f16" offset="2852" shape="16,1,1,1" size="32"/>
			<output>
				<port id="0" precision="FP16">
					<dim>16</dim>
					<dim>1</dim>
					<dim>1</dim>
					<dim>1</dim>
				</port>
			</output>
		</layer>
		<layer id="28" name="pool1/WithoutBiases/fq_weights_1/minus_zp" type="Subtract" version="opset1">
			<data auto_broadcast="numpy"/>
			<input>
				<port id="0">
					<dim>16</dim>
					<dim>16</dim>
					<dim>3</dim>
					<dim>3</dim>
				</port>
				<port id="1">
					<dim>16</dim>
					<dim>1</dim>
					<dim>1</dim>
					<dim>1</dim>
				</port>
			</input>
			<output>
				<port id="2" precision="FP16">
					<dim>16</dim>
					<dim>16</dim>
					<dim>3</dim>
					<dim>3</dim>
				</port>
			</output>
		</layer>
		<layer id="29" name="pool1/WithoutBiases/fq_weights_1/scale8670_const" type="Const" version="opset1">
			<data element_type="f16" offset="2884" shape="16,1,1,1" size="32"/>
			<output>
				<port id="0" precision="FP16">
					<dim>16</dim>
					<dim>1</dim>
					<dim>1</dim>
					<dim>1</dim>
				</port>
			</output>
		</layer>
		<layer id="30" name="pool1/WithoutBiases/fq_weights_1/mulpiply_by_scale" type="Multiply" version="opset1">
			<data auto_broadcast="numpy"/>
			<input>
				<port id="0">
					<dim>16</dim>
					<dim>16</dim>
					<dim>3</dim>
					<dim>3</dim>
				</port>
				<port id="1">
					<dim>16</dim>
					<dim>1</dim>
					<dim>1</dim>
					<dim>1</dim>
				</port>
			</input>
			<output>
				<port id="2" precision="FP16">
					<dim>16</dim>
					<dim>16</dim>
					<dim>3</dim>
					<dim>3</dim>
				</port>
			</output>
		</layer>
		<layer id="31" name="pool1/WithoutBiases" type="Convolution" version="opset1">
			<data auto_pad="explicit" dilations="1,1" pads_begin="1,1" pads_end="1,1" strides="2,2"/>
			<input>
				<port id="0">
					<dim>1</dim>
					<dim>16</dim>
					<dim>60</dim>
					<dim>60</dim>
				</port>
				<port id="1">
					<dim>16</dim>
					<dim>16</dim>
					<dim>3</dim>
					<dim>3</dim>
				</port>
			</input>
			<output>
				<port id="2" precision="FP16">
					<dim>1</dim>
					<dim>16</dim>
					<dim>30</dim>
					<dim>30</dim>
				</port>
			</output>
		</layer>
		<layer id="32" name="pool1/Dims48367784/EltwiseUnsqueeze8111_const474_const" type="Const" version="opset1">
			<data element_type="f16" offset="2916" shape="1,16,1,1" size="32"/>
			<output>
				<port id="0" precision="FP16">
					<dim>1</dim>
					<dim>16</dim>
					<dim>1</dim>
					<dim>1</dim>
				</port>
			</output>
		</layer>
		<layer id="33" name="pool1" type="Add" version="opset1">
			<data auto_broadcast="numpy"/>
			<input>
				<port id="0">
					<dim>1</dim>
					<dim>16</dim>
					<dim>30</dim>
					<dim>30</dim>
				</port>
				<port id="1">
					<dim>1</dim>
					<dim>16</dim>
					<dim>1</dim>
					<dim>1</dim>
				</port>
			</input>
			<output>
				<port id="2" names="pool1" precision="FP16">
					<dim>1</dim>
					<dim>16</dim>
					<dim>30</dim>
					<dim>30</dim>
				</port>
			</output>
		</layer>
		<layer id="34" name="29242928_const" type="Const" version="opset1">
			<data element_type="f16" offset="2948" shape="" size="2"/>
			<output>
				<port id="0" precision="FP16"/>
			</output>
		</layer>
		<layer id="35" name="29252929_const" type="Const" version="opset1">
			<data element_type="f16" offset="2950" shape="" size="2"/>
			<output>
				<port id="0" precision="FP16"/>
			</output>
		</layer>
		<layer id="36" name="29262930_const" type="Const" version="opset1">
			<data element_type="f16" offset="2948" shape="" size="2"/>
			<output>
				<port id="0" precision="FP16"/>
			</output>
		</layer>
		<layer id="37" name="29272931_const" type="Const" version="opset1">
			<data element_type="f16" offset="2950" shape="" size="2"/>
			<output>
				<port id="0" precision="FP16"/>
			</output>
		</layer>
		<layer id="38" name="conv2/WithoutBiases/fq_input_0" type="FakeQuantize" version="opset1">
			<data auto_broadcast="numpy" levels="256"/>
			<input>
				<port id="0">
					<dim>1</dim>
					<dim>16</dim>
					<dim>30</dim>
					<dim>30</dim>
				</port>
				<port id="1"/>
				<port id="2"/>
				<port id="3"/>
				<port id="4"/>
			</input>
			<output>
				<port id="5" precision="FP16">
					<dim>1</dim>
					<dim>16</dim>
					<dim>30</dim>
					<dim>30</dim>
				</port>
			</output>
		</layer>
		<layer id="39" name="bn2/mean/Fused_Mul_84488450_const4766986/quantized8302_const" type="Const" version="opset1">
			<data element_type="i8" offset="2952" shape="32,16,3,3" size="4608"/>
			<output>
				<port id="0" precision="I8">
					<dim>32</dim>
					<dim>16</dim>
					<dim>3</dim>
					<dim>3</dim>
				</port>
			</output>
		</layer>
		<layer id="40" name="bn2/mean/Fused_Mul_84488450_const4766986/quantized/to_f16" type="Convert" version="opset1">
			<data destination_type="f16"/>
			<input>
				<port id="0">
					<dim>32</dim>
					<dim>16</dim>
					<dim>3</dim>
					<dim>3</dim>
				</port>
			</input>
			<output>
				<port id="1" precision="FP16">
					<dim>32</dim>
					<dim>16</dim>
					<dim>3</dim>
					<dim>3</dim>
				</port>
			</output>
		</layer>
		<layer id="41" name="conv2/WithoutBiases/fq_weights_1/zero_point8315_const" type="Const" version="opset1">
			<data element_type="f16" offset="7560" shape="32,1,1,1" size="64"/>
			<output>
				<port id="0" precision="FP16">
					<dim>32</dim>
					<dim>1</dim>
					<dim>1</dim>
					<dim>1</dim>
				</port>
			</output>
		</layer>
		<layer id="42" name="conv2/WithoutBiases/fq_weights_1/minus_zp" type="Subtract" version="opset1">
			<data auto_broadcast="numpy"/>
			<input>
				<port id="0">
					<dim>32</dim>
					<dim>16</dim>
					<dim>3</dim>
					<dim>3</dim>
				</port>
				<port id="1">
					<dim>32</dim>
					<dim>1</dim>
					<dim>1</dim>
					<dim>1</dim>
				</port>
			</input>
			<output>
				<port id="2" precision="FP16">
					<dim>32</dim>
					<dim>16</dim>
					<dim>3</dim>
					<dim>3</dim>
				</port>
			</output>
		</layer>
		<layer id="43" name="conv2/WithoutBiases/fq_weights_1/scale8310_const" type="Const" version="opset1">
			<data element_type="f16" offset="7624" shape="32,1,1,1" size="64"/>
			<output>
				<port id="0" precision="FP16">
					<dim>32</dim>
					<dim>1</dim>
					<dim>1</dim>
					<dim>1</dim>
				</port>
			</output>
		</layer>
		<layer id="44" name="conv2/WithoutBiases/fq_weights_1/mulpiply_by_scale" type="Multiply" version="opset1">
			<data auto_broadcast="numpy"/>
			<input>
				<port id="0">
					<dim>32</dim>
					<dim>16</dim>
					<dim>3</dim>
					<dim>3</dim>
				</port>
				<port id="1">
					<dim>32</dim>
					<dim>1</dim>
					<dim>1</dim>
					<dim>1</dim>
				</port>
			</input>
			<output>
				<port id="2" precision="FP16">
					<dim>32</dim>
					<dim>16</dim>
					<dim>3</dim>
					<dim>3</dim>
				</port>
			</output>
		</layer>
		<layer id="45" name="conv2/WithoutBiases" type="Convolution" version="opset1">
			<data auto_pad="explicit" dilations="1,1" pads_begin="1,1" pads_end="1,1" strides="1,1"/>
			<input>
				<port id="0">
					<dim>1</dim>
					<dim>16</dim>
					<dim>30</dim>
					<dim>30</dim>
				</port>
				<port id="1">
					<dim>32</dim>
					<dim>16</dim>
					<dim>3</dim>
					<dim>3</dim>
				</port>
			</input>
			<output>
				<port id="2" precision="FP16">
					<dim>1</dim>
					<dim>32</dim>
					<dim>30</dim>
					<dim>30</dim>
				</port>
			</output>
		</layer>
		<layer id="46" name="data_add_751875237795/EltwiseUnsqueeze8147_const478_const" type="Const" version="opset1">
			<data element_type="f16" offset="7688" shape="1,32,1,1" size="64"/>
			<output>
				<port id="0" precision="FP16">
					<dim>1</dim>
					<dim>32</dim>
					<dim>1</dim>
					<dim>1</dim>
				</port>
			</output>
		</layer>
		<layer id="47" name="conv2/Fused_Add_" type="Add" version="opset1">
			<data auto_broadcast="numpy"/>
			<input>
				<port id="0">
					<dim>1</dim>
					<dim>32</dim>
					<dim>30</dim>
					<dim>30</dim>
				</port>
				<port id="1">
					<dim>1</dim>
					<dim>32</dim>
					<dim>1</dim>
					<dim>1</dim>
				</port>
			</input>
			<output>
				<port id="2" names="conv2" precision="FP16">
					<dim>1</dim>
					<dim>32</dim>
					<dim>30</dim>
					<dim>30</dim>
				</port>
			</output>
		</layer>
		<layer id="48" name="relu_conv2" type="ReLU" version="opset1">
			<input>
				<port id="0">
					<dim>1</dim>
					<dim>32</dim>
					<dim>30</dim>
					<dim>30</dim>
				</port>
			</input>
			<output>
				<port id="1" names="relu2" precision="FP16">
					<dim>1</dim>
					<dim>32</dim>
					<dim>30</dim>
					<dim>30</dim>
				</port>
			</output>
		</layer>
		<layer id="49" name="16041608_const" type="Const" version="opset1">
			<data element_type="f16" offset="544" shape="" size="2"/>
			<output>
				<port id="0" precision="FP16"/>
			</output>
		</layer>
		<layer id="50" name="16051609_const" type="Const" version="opset1">
			<data element_type="f16" offset="7752" shape="" size="2"/>
			<output>
				<port id="0" precision="FP16"/>
			</output>
		</layer>
		<layer id="51" name="16061610_const" type="Const" version="opset1">
			<data element_type="f16" offset="544" shape="" size="2"/>
			<output>
				<port id="0" precision="FP16"/>
			</output>
		</layer>
		<layer id="52" name="16071611_const" type="Const" version="opset1">
			<data element_type="f16" offset="7752" shape="" size="2"/>
			<output>
				<port id="0" precision="FP16"/>
			</output>
		</layer>
		<layer id="53" name="pool2/WithoutBiases/fq_input_0" type="FakeQuantize" version="opset1">
			<data auto_broadcast="numpy" levels="256"/>
			<input>
				<port id="0">
					<dim>1</dim>
					<dim>32</dim>
					<dim>30</dim>
					<dim>30</dim>
				</port>
				<port id="1"/>
				<port id="2"/>
				<port id="3"/>
				<port id="4"/>
			</input>
			<output>
				<port id="5" precision="FP16">
					<dim>1</dim>
					<dim>32</dim>
					<dim>30</dim>
					<dim>30</dim>
				</port>
			</output>
		</layer>
		<layer id="54" name="413/quantized8158_const" type="Const" version="opset1">
			<data element_type="i8" offset="7754" shape="16,32,3,3" size="4608"/>
			<output>
				<port id="0" precision="I8">
					<dim>16</dim>
					<dim>32</dim>
					<dim>3</dim>
					<dim>3</dim>
				</port>
			</output>
		</layer>
		<layer id="55" name="413/quantized/to_f16" type="Convert" version="opset1">
			<data destination_type="f16"/>
			<input>
				<port id="0">
					<dim>16</dim>
					<dim>32</dim>
					<dim>3</dim>
					<dim>3</dim>
				</port>
			</input>
			<output>
				<port id="1" precision="FP16">
					<dim>16</dim>
					<dim>32</dim>
					<dim>3</dim>
					<dim>3</dim>
				</port>
			</output>
		</layer>
		<layer id="56" name="pool2/WithoutBiases/fq_weights_1/zero_point8171_const" type="Const" version="opset1">
			<data element_type="f16" offset="12362" shape="16,1,1,1" size="32"/>
			<output>
				<port id="0" precision="FP16">
					<dim>16</dim>
					<dim>1</dim>
					<dim>1</dim>
					<dim>1</dim>
				</port>
			</output>
		</layer>
		<layer id="57" name="pool2/WithoutBiases/fq_weights_1/minus_zp" type="Subtract" version="opset1">
			<data auto_broadcast="numpy"/>
			<input>
				<port id="0">
					<dim>16</dim>
					<dim>32</dim>
					<dim>3</dim>
					<dim>3</dim>
				</port>
				<port id="1">
					<dim>16</dim>
					<dim>1</dim>
					<dim>1</dim>
					<dim>1</dim>
				</port>
			</input>
			<output>
				<port id="2" precision="FP16">
					<dim>16</dim>
					<dim>32</dim>
					<dim>3</dim>
					<dim>3</dim>
				</port>
			</output>
		</layer>
		<layer id="58" name="pool2/WithoutBiases/fq_weights_1/scale8166_const" type="Const" version="opset1">
			<data element_type="f16" offset="12394" shape="16,1,1,1" size="32"/>
			<output>
				<port id="0" precision="FP16">
					<dim>16</dim>
					<dim>1</dim>
					<dim>1</dim>
					<dim>1</dim>
				</port>
			</output>
		</layer>
		<layer id="59" name="pool2/WithoutBiases/fq_weights_1/mulpiply_by_scale" type="Multiply" version="opset1">
			<data auto_broadcast="numpy"/>
			<input>
				<port id="0">
					<dim>16</dim>
					<dim>32</dim>
					<dim>3</dim>
					<dim>3</dim>
				</port>
				<port id="1">
					<dim>16</dim>
					<dim>1</dim>
					<dim>1</dim>
					<dim>1</dim>
				</port>
			</input>
			<output>
				<port id="2" precision="FP16">
					<dim>16</dim>
					<dim>32</dim>
					<dim>3</dim>
					<dim>3</dim>
				</port>
			</output>
		</layer>
		<layer id="60" name="pool2/WithoutBiases" type="Convolution" version="opset1">
			<data auto_pad="explicit" dilations="1,1" pads_begin="1,1" pads_end="1,1" strides="2,2"/>
			<input>
				<port id="0">
					<dim>1</dim>
					<dim>32</dim>
					<dim>30</dim>
					<dim>30</dim>
				</port>
				<port id="1">
					<dim>16</dim>
					<dim>32</dim>
					<dim>3</dim>
					<dim>3</dim>
				</port>
			</input>
			<output>
				<port id="2" precision="FP16">
					<dim>1</dim>
					<dim>16</dim>
					<dim>15</dim>
					<dim>15</dim>
				</port>
			</output>
		</layer>
		<layer id="61" name="pool2/Dims44407729/EltwiseUnsqueeze7891_const483_const" type="Const" version="opset1">
			<data element_type="f16" offset="12426" shape="1,16,1,1" size="32"/>
			<output>
				<port id="0" precision="FP16">
					<dim>1</dim>
					<dim>16</dim>
					<dim>1</dim>
					<dim>1</dim>
				</port>
			</output>
		</layer>
		<layer id="62" name="pool2" type="Add" version="opset1">
			<data auto_broadcast="numpy"/>
			<input>
				<port id="0">
					<dim>1</dim>
					<dim>16</dim>
					<dim>15</dim>
					<dim>15</dim>
				</port>
				<port id="1">
					<dim>1</dim>
					<dim>16</dim>
					<dim>1</dim>
					<dim>1</dim>
				</port>
			</input>
			<output>
				<port id="2" names="pool2" precision="FP16">
					<dim>1</dim>
					<dim>16</dim>
					<dim>15</dim>
					<dim>15</dim>
				</port>
			</output>
		</layer>
		<layer id="63" name="23442348_const" type="Const" version="opset1">
			<data element_type="f16" offset="12458" shape="" size="2"/>
			<output>
				<port id="0" precision="FP16"/>
			</output>
		</layer>
		<layer id="64" name="23452349_const" type="Const" version="opset1">
			<data element_type="f16" offset="12460" shape="" size="2"/>
			<output>
				<port id="0" precision="FP16"/>
			</output>
		</layer>
		<layer id="65" name="23462350_const" type="Const" version="opset1">
			<data element_type="f16" offset="12458" shape="" size="2"/>
			<output>
				<port id="0" precision="FP16"/>
			</output>
		</layer>
		<layer id="66" name="23472351_const" type="Const" version="opset1">
			<data element_type="f16" offset="12460" shape="" size="2"/>
			<output>
				<port id="0" precision="FP16"/>
			</output>
		</layer>
		<layer id="67" name="conv3/WithoutBiases/fq_input_0" type="FakeQuantize" version="opset1">
			<data auto_broadcast="numpy" levels="256"/>
			<input>
				<port id="0">
					<dim>1</dim>
					<dim>16</dim>
					<dim>15</dim>
					<dim>15</dim>
				</port>
				<port id="1"/>
				<port id="2"/>
				<port id="3"/>
				<port id="4"/>
			</input>
			<output>
				<port id="5" precision="FP16">
					<dim>1</dim>
					<dim>16</dim>
					<dim>15</dim>
					<dim>15</dim>
				</port>
			</output>
		</layer>
		<layer id="68" name="bn3/mean/Fused_Mul_84528454_const4856990/quantized9094_const" type="Const" version="opset1">
			<data element_type="i8" offset="12462" shape="64,16,3,3" size="9216"/>
			<output>
				<port id="0" precision="I8">
					<dim>64</dim>
					<dim>16</dim>
					<dim>3</dim>
					<dim>3</dim>
				</port>
			</output>
		</layer>
		<layer id="69" name="bn3/mean/Fused_Mul_84528454_const4856990/quantized/to_f16" type="Convert" version="opset1">
			<data destination_type="f16"/>
			<input>
				<port id="0">
					<dim>64</dim>
					<dim>16</dim>
					<dim>3</dim>
					<dim>3</dim>
				</port>
			</input>
			<output>
				<port id="1" precision="FP16">
					<dim>64</dim>
					<dim>16</dim>
					<dim>3</dim>
					<dim>3</dim>
				</port>
			</output>
		</layer>
		<layer id="70" name="conv3/WithoutBiases/fq_weights_1/zero_point9107_const" type="Const" version="opset1">
			<data element_type="f16" offset="21678" shape="64,1,1,1" size="128"/>
			<output>
				<port id="0" precision="FP16">
					<dim>64</dim>
					<dim>1</dim>
					<dim>1</dim>
					<dim>1</dim>
				</port>
			</output>
		</layer>
		<layer id="71" name="conv3/WithoutBiases/fq_weights_1/minus_zp" type="Subtract" version="opset1">
			<data auto_broadcast="numpy"/>
			<input>
				<port id="0">
					<dim>64</dim>
					<dim>16</dim>
					<dim>3</dim>
					<dim>3</dim>
				</port>
				<port id="1">
					<dim>64</dim>
					<dim>1</dim>
					<dim>1</dim>
					<dim>1</dim>
				</port>
			</input>
			<output>
				<port id="2" precision="FP16">
					<dim>64</dim>
					<dim>16</dim>
					<dim>3</dim>
					<dim>3</dim>
				</port>
			</output>
		</layer>
		<layer id="72" name="conv3/WithoutBiases/fq_weights_1/scale9102_const" type="Const" version="opset1">
			<data element_type="f16" offset="21806" shape="64,1,1,1" size="128"/>
			<output>
				<port id="0" precision="FP16">
					<dim>64</dim>
					<dim>1</dim>
					<dim>1</dim>
					<dim>1</dim>
				</port>
			</output>
		</layer>
		<layer id="73" name="conv3/WithoutBiases/fq_weights_1/mulpiply_by_scale" type="Multiply" version="opset1">
			<data auto_broadcast="numpy"/>
			<input>
				<port id="0">
					<dim>64</dim>
					<dim>16</dim>
					<dim>3</dim>
					<dim>3</dim>
				</port>
				<port id="1">
					<dim>64</dim>
					<dim>1</dim>
					<dim>1</dim>
					<dim>1</dim>
				</port>
			</input>
			<output>
				<port id="2" precision="FP16">
					<dim>64</dim>
					<dim>16</dim>
					<dim>3</dim>
					<dim>3</dim>
				</port>
			</output>
		</layer>
		<layer id="74" name="conv3/WithoutBiases" type="Convolution" version="opset1">
			<data auto_pad="explicit" dilations="1,1" pads_begin="1,1" pads_end="1,1" strides="1,1"/>
			<input>
				<port id="0">
					<dim>1</dim>
					<dim>16</dim>
					<dim>15</dim>
					<dim>15</dim>
				</port>
				<port id="1">
					<dim>64</dim>
					<dim>16</dim>
					<dim>3</dim>
					<dim>3</dim>
				</port>
			</input>
			<output>
				<port id="2" precision="FP16">
					<dim>1</dim>
					<dim>64</dim>
					<dim>15</dim>
					<dim>15</dim>
				</port>
			</output>
		</layer>
		<layer id="75" name="data_add_752675317797/EltwiseUnsqueeze8155_const487_const" type="Const" version="opset1">
			<data element_type="f16" offset="21934" shape="1,64,1,1" size="128"/>
			<output>
				<port id="0" precision="FP16">
					<dim>1</dim>
					<dim>64</dim>
					<dim>1</dim>
					<dim>1</dim>
				</port>
			</output>
		</layer>
		<layer id="76" name="conv3/Fused_Add_" type="Add" version="opset1">
			<data auto_broadcast="numpy"/>
			<input>
				<port id="0">
					<dim>1</dim>
					<dim>64</dim>
					<dim>15</dim>
					<dim>15</dim>
				</port>
				<port id="1">
					<dim>1</dim>
					<dim>64</dim>
					<dim>1</dim>
					<dim>1</dim>
				</port>
			</input>
			<output>
				<port id="2" names="conv3" precision="FP16">
					<dim>1</dim>
					<dim>64</dim>
					<dim>15</dim>
					<dim>15</dim>
				</port>
			</output>
		</layer>
		<layer id="77" name="relu_conv3" type="ReLU" version="opset1">
			<input>
				<port id="0">
					<dim>1</dim>
					<dim>64</dim>
					<dim>15</dim>
					<dim>15</dim>
				</port>
			</input>
			<output>
				<port id="1" names="relu3" precision="FP16">
					<dim>1</dim>
					<dim>64</dim>
					<dim>15</dim>
					<dim>15</dim>
				</port>
			</output>
		</layer>
		<layer id="78" name="26642668_const" type="Const" version="opset1">
			<data element_type="f16" offset="544" shape="" size="2"/>
			<output>
				<port id="0" precision="FP16"/>
			</output>
		</layer>
		<layer id="79" name="26652669_const" type="Const" version="opset1">
			<data element_type="f16" offset="22062" shape="" size="2"/>
			<output>
				<port id="0" precision="FP16"/>
			</output>
		</layer>
		<layer id="80" name="26662670_const" type="Const" version="opset1">
			<data element_type="f16" offset="544" shape="" size="2"/>
			<output>
				<port id="0" precision="FP16"/>
			</output>
		</layer>
		<layer id="81" name="26672671_const" type="Const" version="opset1">
			<data element_type="f16" offset="22062" shape="" size="2"/>
			<output>
				<port id="0" precision="FP16"/>
			</output>
		</layer>
		<layer id="82" name="pool3/WithoutBiases/fq_input_0" type="FakeQuantize" version="opset1">
			<data auto_broadcast="numpy" levels="256"/>
			<input>
				<port id="0">
					<dim>1</dim>
					<dim>64</dim>
					<dim>15</dim>
					<dim>15</dim>
				</port>
				<port id="1"/>
				<port id="2"/>
				<port id="3"/>
				<port id="4"/>
			</input>
			<output>
				<port id="5" precision="FP16">
					<dim>1</dim>
					<dim>64</dim>
					<dim>15</dim>
					<dim>15</dim>
				</port>
			</output>
		</layer>
		<layer id="83" name="395/quantized9574_const" type="Const" version="opset1">
			<data element_type="i8" offset="22064" shape="32,64,3,3" size="18432"/>
			<output>
				<port id="0" precision="I8">
					<dim>32</dim>
					<dim>64</dim>
					<dim>3</dim>
					<dim>3</dim>
				</port>
			</output>
		</layer>
		<layer id="84" name="395/quantized/to_f16" type="Convert" version="opset1">
			<data destination_type="f16"/>
			<input>
				<port id="0">
					<dim>32</dim>
					<dim>64</dim>
					<dim>3</dim>
					<dim>3</dim>
				</port>
			</input>
			<output>
				<port id="1" precision="FP16">
					<dim>32</dim>
					<dim>64</dim>
					<dim>3</dim>
					<dim>3</dim>
				</port>
			</output>
		</layer>
		<layer id="85" name="pool3/WithoutBiases/fq_weights_1/zero_point9587_const" type="Const" version="opset1">
			<data element_type="f16" offset="40496" shape="32,1,1,1" size="64"/>
			<output>
				<port id="0" precision="FP16">
					<dim>32</dim>
					<dim>1</dim>
					<dim>1</dim>
					<dim>1</dim>
				</port>
			</output>
		</layer>
		<layer id="86" name="pool3/WithoutBiases/fq_weights_1/minus_zp" type="Subtract" version="opset1">
			<data auto_broadcast="numpy"/>
			<input>
				<port id="0">
					<dim>32</dim>
					<dim>64</dim>
					<dim>3</dim>
					<dim>3</dim>
				</port>
				<port id="1">
					<dim>32</dim>
					<dim>1</dim>
					<dim>1</dim>
					<dim>1</dim>
				</port>
			</input>
			<output>
				<port id="2" precision="FP16">
					<dim>32</dim>
					<dim>64</dim>
					<dim>3</dim>
					<dim>3</dim>
				</port>
			</output>
		</layer>
		<layer id="87" name="pool3/WithoutBiases/fq_weights_1/scale9582_const" type="Const" version="opset1">
			<data element_type="f16" offset="40560" shape="32,1,1,1" size="64"/>
			<output>
				<port id="0" precision="FP16">
					<dim>32</dim>
					<dim>1</dim>
					<dim>1</dim>
					<dim>1</dim>
				</port>
			</output>
		</layer>
		<layer id="88" name="pool3/WithoutBiases/fq_weights_1/mulpiply_by_scale" type="Multiply" version="opset1">
			<data auto_broadcast="numpy"/>
			<input>
				<port id="0">
					<dim>32</dim>
					<dim>64</dim>
					<dim>3</dim>
					<dim>3</dim>
				</port>
				<port id="1">
					<dim>32</dim>
					<dim>1</dim>
					<dim>1</dim>
					<dim>1</dim>
				</port>
			</input>
			<output>
				<port id="2" precision="FP16">
					<dim>32</dim>
					<dim>64</dim>
					<dim>3</dim>
					<dim>3</dim>
				</port>
			</output>
		</layer>
		<layer id="89" name="pool3/WithoutBiases" type="Convolution" version="opset1">
			<data auto_pad="explicit" dilations="1,1" pads_begin="1,1" pads_end="1,1" strides="2,2"/>
			<input>
				<port id="0">
					<dim>1</dim>
					<dim>64</dim>
					<dim>15</dim>
					<dim>15</dim>
				</port>
				<port id="1">
					<dim>32</dim>
					<dim>64</dim>
					<dim>3</dim>
					<dim>3</dim>
				</port>
			</input>
			<output>
				<port id="2" precision="FP16">
					<dim>1</dim>
					<dim>32</dim>
					<dim>8</dim>
					<dim>8</dim>
				</port>
			</output>
		</layer>
		<layer id="90" name="pool3/Dims44227727/EltwiseUnsqueeze7883_const492_const" type="Const" version="opset1">
			<data element_type="f16" offset="40624" shape="1,32,1,1" size="64"/>
			<output>
				<port id="0" precision="FP16">
					<dim>1</dim>
					<dim>32</dim>
					<dim>1</dim>
					<dim>1</dim>
				</port>
			</output>
		</layer>
		<layer id="91" name="pool3" type="Add" version="opset1">
			<data auto_broadcast="numpy"/>
			<input>
				<port id="0">
					<dim>1</dim>
					<dim>32</dim>
					<dim>8</dim>
					<dim>8</dim>
				</port>
				<port id="1">
					<dim>1</dim>
					<dim>32</dim>
					<dim>1</dim>
					<dim>1</dim>
				</port>
			</input>
			<output>
				<port id="2" names="pool3" precision="FP16">
					<dim>1</dim>
					<dim>32</dim>
					<dim>8</dim>
					<dim>8</dim>
				</port>
			</output>
		</layer>
		<layer id="92" name="28442848_const" type="Const" version="opset1">
			<data element_type="f16" offset="40688" shape="" size="2"/>
			<output>
				<port id="0" precision="FP16"/>
			</output>
		</layer>
		<layer id="93" name="28452849_const" type="Const" version="opset1">
			<data element_type="f16" offset="40690" shape="" size="2"/>
			<output>
				<port id="0" precision="FP16"/>
			</output>
		</layer>
		<layer id="94" name="28462850_const" type="Const" version="opset1">
			<data element_type="f16" offset="40688" shape="" size="2"/>
			<output>
				<port id="0" precision="FP16"/>
			</output>
		</layer>
		<layer id="95" name="28472851_const" type="Const" version="opset1">
			<data element_type="f16" offset="40690" shape="" size="2"/>
			<output>
				<port id="0" precision="FP16"/>
			</output>
		</layer>
		<layer id="96" name="conv4/WithoutBiases/fq_input_0" type="FakeQuantize" version="opset1">
			<data auto_broadcast="numpy" levels="256"/>
			<input>
				<port id="0">
					<dim>1</dim>
					<dim>32</dim>
					<dim>8</dim>
					<dim>8</dim>
				</port>
				<port id="1"/>
				<port id="2"/>
				<port id="3"/>
				<port id="4"/>
			</input>
			<output>
				<port id="5" precision="FP16">
					<dim>1</dim>
					<dim>32</dim>
					<dim>8</dim>
					<dim>8</dim>
				</port>
			</output>
		</layer>
		<layer id="97" name="bn4/mean/Fused_Mul_84568458_const4946994/quantized8134_const" type="Const" version="opset1">
			<data element_type="i8" offset="40692" shape="128,32,3,3" size="36864"/>
			<output>
				<port id="0" precision="I8">
					<dim>128</dim>
					<dim>32</dim>
					<dim>3</dim>
					<dim>3</dim>
				</port>
			</output>
		</layer>
		<layer id="98" name="bn4/mean/Fused_Mul_84568458_const4946994/quantized/to_f16" type="Convert" version="opset1">
			<data destination_type="f16"/>
			<input>
				<port id="0">
					<dim>128</dim>
					<dim>32</dim>
					<dim>3</dim>
					<dim>3</dim>
				</port>
			</input>
			<output>
				<port id="1" precision="FP16">
					<dim>128</dim>
					<dim>32</dim>
					<dim>3</dim>
					<dim>3</dim>
				</port>
			</output>
		</layer>
		<layer id="99" name="conv4/WithoutBiases/fq_weights_1/zero_point8147_const" type="Const" version="opset1">
			<data element_type="f16" offset="77556" shape="128,1,1,1" size="256"/>
			<output>
				<port id="0" precision="FP16">
					<dim>128</dim>
					<dim>1</dim>
					<dim>1</dim>
					<dim>1</dim>
				</port>
			</output>
		</layer>
		<layer id="100" name="conv4/WithoutBiases/fq_weights_1/minus_zp" type="Subtract" version="opset1">
			<data auto_broadcast="numpy"/>
			<input>
				<port id="0">
					<dim>128</dim>
					<dim>32</dim>
					<dim>3</dim>
					<dim>3</dim>
				</port>
				<port id="1">
					<dim>128</dim>
					<dim>1</dim>
					<dim>1</dim>
					<dim>1</dim>
				</port>
			</input>
			<output>
				<port id="2" precision="FP16">
					<dim>128</dim>
					<dim>32</dim>
					<dim>3</dim>
					<dim>3</dim>
				</port>
			</output>
		</layer>
		<layer id="101" name="conv4/WithoutBiases/fq_weights_1/scale8142_const" type="Const" version="opset1">
			<data element_type="f16" offset="77812" shape="128,1,1,1" size="256"/>
			<output>
				<port id="0" precision="FP16">
					<dim>128</dim>
					<dim>1</dim>
					<dim>1</dim>
					<dim>1</dim>
				</port>
			</output>
		</layer>
		<layer id="102" name="conv4/WithoutBiases/fq_weights_1/mulpiply_by_scale" type="Multiply" version="opset1">
			<data auto_broadcast="numpy"/>
			<input>
				<port id="0">
					<dim>128</dim>
					<dim>32</dim>
					<dim>3</dim>
					<dim>3</dim>
				</port>
				<port id="1">
					<dim>128</dim>
					<dim>1</dim>
					<dim>1</dim>
					<dim>1</dim>
				</port>
			</input>
			<output>
				<port id="2" precision="FP16">
					<dim>128</dim>
					<dim>32</dim>
					<dim>3</dim>
					<dim>3</dim>
				</port>
			</output>
		</layer>
		<layer id="103" name="conv4/WithoutBiases" type="Convolution" version="opset1">
			<data auto_pad="explicit" dilations="1,1" pads_begin="1,1" pads_end="1,1" strides="1,1"/>
			<input>
				<port id="0">
					<dim>1</dim>
					<dim>32</dim>
					<dim>8</dim>
					<dim>8</dim>
				</port>
				<port id="1">
					<dim>128</dim>
					<dim>32</dim>
					<dim>3</dim>
					<dim>3</dim>
				</port>
			</input>
			<output>
				<port id="2" precision="FP16">
					<dim>1</dim>
					<dim>128</dim>
					<dim>8</dim>
					<dim>8</dim>
				</port>
			</output>
		</layer>
		<layer id="104" name="data_add_753475397799/EltwiseUnsqueeze8163_const496_const" type="Const" version="opset1">
			<data element_type="f16" offset="78068" shape="1,128,1,1" size="256"/>
			<output>
				<port id="0" precision="FP16">
					<dim>1</dim>
					<dim>128</dim>
					<dim>1</dim>
					<dim>1</dim>
				</port>
			</output>
		</layer>
		<layer id="105" name="conv4/Fused_Add_" type="Add" version="opset1">
			<data auto_broadcast="numpy"/>
			<input>
				<port id="0">
					<dim>1</dim>
					<dim>128</dim>
					<dim>8</dim>
					<dim>8</dim>
				</port>
				<port id="1">
					<dim>1</dim>
					<dim>128</dim>
					<dim>1</dim>
					<dim>1</dim>
				</port>
			</input>
			<output>
				<port id="2" names="conv4" precision="FP16">
					<dim>1</dim>
					<dim>128</dim>
					<dim>8</dim>
					<dim>8</dim>
				</port>
			</output>
		</layer>
		<layer id="106" name="relu_conv4" type="ReLU" version="opset1">
			<input>
				<port id="0">
					<dim>1</dim>
					<dim>128</dim>
					<dim>8</dim>
					<dim>8</dim>
				</port>
			</input>
			<output>
				<port id="1" names="relu4" precision="FP16">
					<dim>1</dim>
					<dim>128</dim>
					<dim>8</dim>
					<dim>8</dim>
				</port>
			</output>
		</layer>
		<layer id="107" name="19641968_const" type="Const" version="opset1">
			<data element_type="f16" offset="544" shape="" size="2"/>
			<output>
				<port id="0" precision="FP16"/>
			</output>
		</layer>
		<layer id="108" name="19651969_const" type="Const" version="opset1">
			<data element_type="f16" offset="78324" shape="" size="2"/>
			<output>
				<port id="0" precision="FP16"/>
			</output>
		</layer>
		<layer id="109" name="19661970_const" type="Const" version="opset1">
			<data element_type="f16" offset="544" shape="" size="2"/>
			<output>
				<port id="0" precision="FP16"/>
			</output>
		</layer>
		<layer id="110" name="19671971_const" type="Const" version="opset1">
			<data element_type="f16" offset="78324" shape="" size="2"/>
			<output>
				<port id="0" precision="FP16"/>
			</output>
		</layer>
		<layer id="111" name="pool4/WithoutBiases/fq_input_0" type="FakeQuantize" version="opset1">
			<data auto_broadcast="numpy" levels="256"/>
			<input>
				<port id="0">
					<dim>1</dim>
					<dim>128</dim>
					<dim>8</dim>
					<dim>8</dim>
				</port>
				<port id="1"/>
				<port id="2"/>
				<port id="3"/>
				<port id="4"/>
			</input>
			<output>
				<port id="5" precision="FP16">
					<dim>1</dim>
					<dim>128</dim>
					<dim>8</dim>
					<dim>8</dim>
				</port>
			</output>
		</layer>
		<layer id="112" name="303/quantized9382_const" type="Const" version="opset1">
			<data element_type="i8" offset="78326" shape="64,128,3,3" size="73728"/>
			<output>
				<port id="0" precision="I8">
					<dim>64</dim>
					<dim>128</dim>
					<dim>3</dim>
					<dim>3</dim>
				</port>
			</output>
		</layer>
		<layer id="113" name="303/quantized/to_f16" type="Convert" version="opset1">
			<data destination_type="f16"/>
			<input>
				<port id="0">
					<dim>64</dim>
					<dim>128</dim>
					<dim>3</dim>
					<dim>3</dim>
				</port>
			</input>
			<output>
				<port id="1" precision="FP16">
					<dim>64</dim>
					<dim>128</dim>
					<dim>3</dim>
					<dim>3</dim>
				</port>
			</output>
		</layer>
		<layer id="114" name="pool4/WithoutBiases/fq_weights_1/zero_point9395_const" type="Const" version="opset1">
			<data element_type="f16" offset="152054" shape="64,1,1,1" size="128"/>
			<output>
				<port id="0" precision="FP16">
					<dim>64</dim>
					<dim>1</dim>
					<dim>1</dim>
					<dim>1</dim>
				</port>
			</output>
		</layer>
		<layer id="115" name="pool4/WithoutBiases/fq_weights_1/minus_zp" type="Subtract" version="opset1">
			<data auto_broadcast="numpy"/>
			<input>
				<port id="0">
					<dim>64</dim>
					<dim>128</dim>
					<dim>3</dim>
					<dim>3</dim>
				</port>
				<port id="1">
					<dim>64</dim>
					<dim>1</dim>
					<dim>1</dim>
					<dim>1</dim>
				</port>
			</input>
			<output>
				<port id="2" precision="FP16">
					<dim>64</dim>
					<dim>128</dim>
					<dim>3</dim>
					<dim>3</dim>
				</port>
			</output>
		</layer>
		<layer id="116" name="pool4/WithoutBiases/fq_weights_1/scale9390_const" type="Const" version="opset1">
			<data element_type="f16" offset="152182" shape="64,1,1,1" size="128"/>
			<output>
				<port id="0" precision="FP16">
					<dim>64</dim>
					<dim>1</dim>
					<dim>1</dim>
					<dim>1</dim>
				</port>
			</output>
		</layer>
		<layer id="117" name="pool4/WithoutBiases/fq_weights_1/mulpiply_by_scale" type="Multiply" version="opset1">
			<data auto_broadcast="numpy"/>
			<input>
				<port id="0">
					<dim>64</dim>
					<dim>128</dim>
					<dim>3</dim>
					<dim>3</dim>
				</port>
				<port id="1">
					<dim>64</dim>
					<dim>1</dim>
					<dim>1</dim>
					<dim>1</dim>
				</port>
			</input>
			<output>
				<port id="2" precision="FP16">
					<dim>64</dim>
					<dim>128</dim>
					<dim>3</dim>
					<dim>3</dim>
				</port>
			</output>
		</layer>
		<layer id="118" name="pool4/WithoutBiases" type="Convolution" version="opset1">
			<data auto_pad="explicit" dilations="1,1" pads_begin="0,0" pads_end="0,0" strides="2,2"/>
			<input>
				<port id="0">
					<dim>1</dim>
					<dim>128</dim>
					<dim>8</dim>
					<dim>8</dim>
				</port>
				<port id="1">
					<dim>64</dim>
					<dim>128</dim>
					<dim>3</dim>
					<dim>3</dim>
				</port>
			</input>
			<output>
				<port id="2" precision="FP16">
					<dim>1</dim>
					<dim>64</dim>
					<dim>3</dim>
					<dim>3</dim>
				</port>
			</output>
		</layer>
		<layer id="119" name="pool4/Dims47827775/EltwiseUnsqueeze8075_const501_const" type="Const" version="opset1">
			<data element_type="f16" offset="152310" shape="1,64,1,1" size="128"/>
			<output>
				<port id="0" precision="FP16">
					<dim>1</dim>
					<dim>64</dim>
					<dim>1</dim>
					<dim>1</dim>
				</port>
			</output>
		</layer>
		<layer id="120" name="pool4" type="Add" version="opset1">
			<data auto_broadcast="numpy"/>
			<input>
				<port id="0">
					<dim>1</dim>
					<dim>64</dim>
					<dim>3</dim>
					<dim>3</dim>
				</port>
				<port id="1">
					<dim>1</dim>
					<dim>64</dim>
					<dim>1</dim>
					<dim>1</dim>
				</port>
			</input>
			<output>
				<port id="2" names="pool4" precision="FP16">
					<dim>1</dim>
					<dim>64</dim>
					<dim>3</dim>
					<dim>3</dim>
				</port>
			</output>
		</layer>
		<layer id="121" name="18641868_const" type="Const" version="opset1">
			<data element_type="f16" offset="152438" shape="" size="2"/>
			<output>
				<port id="0" precision="FP16"/>
			</output>
		</layer>
		<layer id="122" name="18651869_const" type="Const" version="opset1">
			<data element_type="f16" offset="152440" shape="" size="2"/>
			<output>
				<port id="0" precision="FP16"/>
			</output>
		</layer>
		<layer id="123" name="18661870_const" type="Const" version="opset1">
			<data element_type="f16" offset="152438" shape="" size="2"/>
			<output>
				<port id="0" precision="FP16"/>
			</output>
		</layer>
		<layer id="124" name="18671871_const" type="Const" version="opset1">
			<data element_type="f16" offset="152440" shape="" size="2"/>
			<output>
				<port id="0" precision="FP16"/>
			</output>
		</layer>
		<layer id="125" name="conv5/WithoutBiases/fq_input_0" type="FakeQuantize" version="opset1">
			<data auto_broadcast="numpy" levels="256"/>
			<input>
				<port id="0">
					<dim>1</dim>
					<dim>64</dim>
					<dim>3</dim>
					<dim>3</dim>
				</port>
				<port id="1"/>
				<port id="2"/>
				<port id="3"/>
				<port id="4"/>
			</input>
			<output>
				<port id="5" precision="FP16">
					<dim>1</dim>
					<dim>64</dim>
					<dim>3</dim>
					<dim>3</dim>
				</port>
			</output>
		</layer>
		<layer id="126" name="bn5/mean/Fused_Mul_84608462_const5036998/quantized8758_const" type="Const" version="opset1">
			<data element_type="i8" offset="152442" shape="256,64,3,3" size="147456"/>
			<output>
				<port id="0" precision="I8">
					<dim>256</dim>
					<dim>64</dim>
					<dim>3</dim>
					<dim>3</dim>
				</port>
			</output>
		</layer>
		<layer id="127" name="bn5/mean/Fused_Mul_84608462_const5036998/quantized/to_f16" type="Convert" version="opset1">
			<data destination_type="f16"/>
			<input>
				<port id="0">
					<dim>256</dim>
					<dim>64</dim>
					<dim>3</dim>
					<dim>3</dim>
				</port>
			</input>
			<output>
				<port id="1" precision="FP16">
					<dim>256</dim>
					<dim>64</dim>
					<dim>3</dim>
					<dim>3</dim>
				</port>
			</output>
		</layer>
		<layer id="128" name="conv5/WithoutBiases/fq_weights_1/zero_point8771_const" type="Const" version="opset1">
			<data element_type="f16" offset="299898" shape="256,1,1,1" size="512"/>
			<output>
				<port id="0" precision="FP16">
					<dim>256</dim>
					<dim>1</dim>
					<dim>1</dim>
					<dim>1</dim>
				</port>
			</output>
		</layer>
		<layer id="129" name="conv5/WithoutBiases/fq_weights_1/minus_zp" type="Subtract" version="opset1">
			<data auto_broadcast="numpy"/>
			<input>
				<port id="0">
					<dim>256</dim>
					<dim>64</dim>
					<dim>3</dim>
					<dim>3</dim>
				</port>
				<port id="1">
					<dim>256</dim>
					<dim>1</dim>
					<dim>1</dim>
					<dim>1</dim>
				</port>
			</input>
			<output>
				<port id="2" precision="FP16">
					<dim>256</dim>
					<dim>64</dim>
					<dim>3</dim>
					<dim>3</dim>
				</port>
			</output>
		</layer>
		<layer id="130" name="conv5/WithoutBiases/fq_weights_1/scale8766_const" type="Const" version="opset1">
			<data element_type="f16" offset="300410" shape="256,1,1,1" size="512"/>
			<output>
				<port id="0" precision="FP16">
					<dim>256</dim>
					<dim>1</dim>
					<dim>1</dim>
					<dim>1</dim>
				</port>
			</output>
		</layer>
		<layer id="131" name="conv5/WithoutBiases/fq_weights_1/mulpiply_by_scale" type="Multiply" version="opset1">
			<data auto_broadcast="numpy"/>
			<input>
				<port id="0">
					<dim>256</dim>
					<dim>64</dim>
					<dim>3</dim>
					<dim>3</dim>
				</port>
				<port id="1">
					<dim>256</dim>
					<dim>1</dim>
					<dim>1</dim>
					<dim>1</dim>
				</port>
			</input>
			<output>
				<port id="2" precision="FP16">
					<dim>256</dim>
					<dim>64</dim>
					<dim>3</dim>
					<dim>3</dim>
				</port>
			</output>
		</layer>
		<layer id="132" name="conv5/WithoutBiases" type="Convolution" version="opset1">
			<data auto_pad="explicit" dilations="1,1" pads_begin="1,1" pads_end="1,1" strides="1,1"/>
			<input>
				<port id="0">
					<dim>1</dim>
					<dim>64</dim>
					<dim>3</dim>
					<dim>3</dim>
				</port>
				<port id="1">
					<dim>256</dim>
					<dim>64</dim>
					<dim>3</dim>
					<dim>3</dim>
				</port>
			</input>
			<output>
				<port id="2" precision="FP16">
					<dim>1</dim>
					<dim>256</dim>
					<dim>3</dim>
					<dim>3</dim>
				</port>
			</output>
		</layer>
		<layer id="133" name="data_add_754275477801/EltwiseUnsqueeze8171_const505_const" type="Const" version="opset1">
			<data element_type="f16" offset="300922" shape="1,256,1,1" size="512"/>
			<output>
				<port id="0" precision="FP16">
					<dim>1</dim>
					<dim>256</dim>
					<dim>1</dim>
					<dim>1</dim>
				</port>
			</output>
		</layer>
		<layer id="134" name="conv5/Fused_Add_" type="Add" version="opset1">
			<data auto_broadcast="numpy"/>
			<input>
				<port id="0">
					<dim>1</dim>
					<dim>256</dim>
					<dim>3</dim>
					<dim>3</dim>
				</port>
				<port id="1">
					<dim>1</dim>
					<dim>256</dim>
					<dim>1</dim>
					<dim>1</dim>
				</port>
			</input>
			<output>
				<port id="2" names="conv5" precision="FP16">
					<dim>1</dim>
					<dim>256</dim>
					<dim>3</dim>
					<dim>3</dim>
				</port>
			</output>
		</layer>
		<layer id="135" name="relu_conv5" type="ReLU" version="opset1">
			<input>
				<port id="0">
					<dim>1</dim>
					<dim>256</dim>
					<dim>3</dim>
					<dim>3</dim>
				</port>
			</input>
			<output>
				<port id="1" names="relu5" precision="FP16">
					<dim>1</dim>
					<dim>256</dim>
					<dim>3</dim>
					<dim>3</dim>
				</port>
			</output>
		</layer>
		<layer id="136" name="18841888_const" type="Const" version="opset1">
			<data element_type="f16" offset="544" shape="" size="2"/>
			<output>
				<port id="0" precision="FP16"/>
			</output>
		</layer>
		<layer id="137" name="18851889_const" type="Const" version="opset1">
			<data element_type="f16" offset="301434" shape="" size="2"/>
			<output>
				<port id="0" precision="FP16"/>
			</output>
		</layer>
		<layer id="138" name="18861890_const" type="Const" version="opset1">
			<data element_type="f16" offset="544" shape="" size="2"/>
			<output>
				<port id="0" precision="FP16"/>
			</output>
		</layer>
		<layer id="139" name="18871891_const" type="Const" version="opset1">
			<data element_type="f16" offset="301434" shape="" size="2"/>
			<output>
				<port id="0" precision="FP16"/>
			</output>
		</layer>
		<layer id="140" name="conv_fm/WithoutBiases/fq_input_0" type="FakeQuantize" version="opset1">
			<data auto_broadcast="numpy" levels="256"/>
			<input>
				<port id="0">
					<dim>1</dim>
					<dim>256</dim>
					<dim>3</dim>
					<dim>3</dim>
				</port>
				<port id="1"/>
				<port id="2"/>
				<port id="3"/>
				<port id="4"/>
			</input>
			<output>
				<port id="5" precision="FP16">
					<dim>1</dim>
					<dim>256</dim>
					<dim>3</dim>
					<dim>3</dim>
				</port>
			</output>
		</layer>
		<layer id="141" name="333/quantized8254_const" type="Const" version="opset1">
			<data element_type="i8" offset="301436" shape="512,256,3,3" size="1179648"/>
			<output>
				<port id="0" precision="I8">
					<dim>512</dim>
					<dim>256</dim>
					<dim>3</dim>
					<dim>3</dim>
				</port>
			</output>
		</layer>
		<layer id="142" name="333/quantized/to_f16" type="Convert" version="opset1">
			<data destination_type="f16"/>
			<input>
				<port id="0">
					<dim>512</dim>
					<dim>256</dim>
					<dim>3</dim>
					<dim>3</dim>
				</port>
			</input>
			<output>
				<port id="1" precision="FP16">
					<dim>512</dim>
					<dim>256</dim>
					<dim>3</dim>
					<dim>3</dim>
				</port>
			</output>
		</layer>
		<layer id="143" name="conv_fm/WithoutBiases/fq_weights_1/zero_point8267_const" type="Const" version="opset1">
			<data element_type="f16" offset="1481084" shape="512,1,1,1" size="1024"/>
			<output>
				<port id="0" precision="FP16">
					<dim>512</dim>
					<dim>1</dim>
					<dim>1</dim>
					<dim>1</dim>
				</port>
			</output>
		</layer>
		<layer id="144" name="conv_fm/WithoutBiases/fq_weights_1/minus_zp" type="Subtract" version="opset1">
			<data auto_broadcast="numpy"/>
			<input>
				<port id="0">
					<dim>512</dim>
					<dim>256</dim>
					<dim>3</dim>
					<dim>3</dim>
				</port>
				<port id="1">
					<dim>512</dim>
					<dim>1</dim>
					<dim>1</dim>
					<dim>1</dim>
				</port>
			</input>
			<output>
				<port id="2" precision="FP16">
					<dim>512</dim>
					<dim>256</dim>
					<dim>3</dim>
					<dim>3</dim>
				</port>
			</output>
		</layer>
		<layer id="145" name="conv_fm/WithoutBiases/fq_weights_1/scale8262_const" type="Const" version="opset1">
			<data element_type="f16" offset="1482108" shape="512,1,1,1" size="1024"/>
			<output>
				<port id="0" precision="FP16">
					<dim>512</dim>
					<dim>1</dim>
					<dim>1</dim>
					<dim>1</dim>
				</port>
			</output>
		</layer>
		<layer id="146" name="conv_fm/WithoutBiases/fq_weights_1/mulpiply_by_scale" type="Multiply" version="opset1">
			<data auto_broadcast="numpy"/>
			<input>
				<port id="0">
					<dim>512</dim>
					<dim>256</dim>
					<dim>3</dim>
					<dim>3</dim>
				</port>
				<port id="1">
					<dim>512</dim>
					<dim>1</dim>
					<dim>1</dim>
					<dim>1</dim>
				</port>
			</input>
			<output>
				<port id="2" precision="FP16">
					<dim>512</dim>
					<dim>256</dim>
					<dim>3</dim>
					<dim>3</dim>
				</port>
			</output>
		</layer>
		<layer id="147" name="conv_fm/WithoutBiases" type="Convolution" version="opset1">
			<data auto_pad="explicit" dilations="1,1" pads_begin="0,0" pads_end="0,0" strides="1,1"/>
			<input>
				<port id="0">
					<dim>1</dim>
					<dim>256</dim>
					<dim>3</dim>
					<dim>3</dim>
				</port>
				<port id="1">
					<dim>512</dim>
					<dim>256</dim>
					<dim>3</dim>
					<dim>3</dim>
				</port>
			</input>
			<output>
				<port id="2" precision="FP16">
					<dim>1</dim>
					<dim>512</dim>
					<dim>1</dim>
					<dim>1</dim>
				</port>
			</output>
		</layer>
		<layer id="148" name="conv_fm/Dims48127780/EltwiseUnsqueeze8095_const510_const" type="Const" version="opset1">
			<data element_type="f16" offset="1483132" shape="1,512,1,1" size="1024"/>
			<output>
				<port id="0" precision="FP16">
					<dim>1</dim>
					<dim>512</dim>
					<dim>1</dim>
					<dim>1</dim>
				</port>
			</output>
		</layer>
		<layer id="149" name="conv_fm" type="Add" version="opset1">
			<data auto_broadcast="numpy"/>
			<input>
				<port id="0">
					<dim>1</dim>
					<dim>512</dim>
					<dim>1</dim>
					<dim>1</dim>
				</port>
				<port id="1">
					<dim>1</dim>
					<dim>512</dim>
					<dim>1</dim>
					<dim>1</dim>
				</port>
			</input>
			<output>
				<port id="2" names="conv_fm" precision="FP16">
					<dim>1</dim>
					<dim>512</dim>
					<dim>1</dim>
					<dim>1</dim>
				</port>
			</output>
		</layer>
		<layer id="150" name="27242728_const" type="Const" version="opset1">
			<data element_type="f16" offset="1484156" shape="" size="2"/>
			<output>
				<port id="0" precision="FP16"/>
			</output>
		</layer>
		<layer id="151" name="27252729_const" type="Const" version="opset1">
			<data element_type="f16" offset="1484158" shape="" size="2"/>
			<output>
				<port id="0" precision="FP16"/>
			</output>
		</layer>
		<layer id="152" name="27262730_const" type="Const" version="opset1">
			<data element_type="f16" offset="1484156" shape="" size="2"/>
			<output>
				<port id="0" precision="FP16"/>
			</output>
		</layer>
		<layer id="153" name="27272731_const" type="Const" version="opset1">
			<data element_type="f16" offset="1484158" shape="" size="2"/>
			<output>
				<port id="0" precision="FP16"/>
			</output>
		</layer>
		<layer id="154" name="landmarks_conv_edge_61/WithoutBiases/fq_input_0" type="FakeQuantize" version="opset1">
			<data auto_broadcast="numpy" levels="256"/>
			<input>
				<port id="0">
					<dim>1</dim>
					<dim>512</dim>
					<dim>1</dim>
					<dim>1</dim>
				</port>
				<port id="1"/>
				<port id="2"/>
				<port id="3"/>
				<port id="4"/>
			</input>
			<output>
				<port id="5" precision="FP16">
					<dim>1</dim>
					<dim>512</dim>
					<dim>1</dim>
					<dim>1</dim>
				</port>
			</output>
		</layer>
		<layer id="155" name="bn/landmarks_conv_leye_corner/mean/Fused_Mul_84888490_const5127002/quantized8038_const" type="Const" version="opset1">
			<data element_type="i8" offset="1484160" shape="256,512,1,1" size="131072"/>
			<output>
				<port id="0" precision="I8">
					<dim>256</dim>
					<dim>512</dim>
					<dim>1</dim>
					<dim>1</dim>
				</port>
			</output>
		</layer>
		<layer id="156" name="bn/landmarks_conv_leye_corner/mean/Fused_Mul_84888490_const5127002/quantized/to_f16" type="Convert" version="opset1">
			<data destination_type="f16"/>
			<input>
				<port id="0">
					<dim>256</dim>
					<dim>512</dim>
					<dim>1</dim>
					<dim>1</dim>
				</port>
			</input>
			<output>
				<port id="1" precision="FP16">
					<dim>256</dim>
					<dim>512</dim>
					<dim>1</dim>
					<dim>1</dim>
				</port>
			</output>
		</layer>
		<layer id="157" name="landmarks_conv_leye_corner/WithoutBiases/fq_weights_1/zero_point8051_const" type="Const" version="opset1">
			<data element_type="f16" offset="1615232" shape="256,1,1,1" size="512"/>
			<output>
				<port id="0" precision="FP16">
					<dim>256</dim>
					<dim>1</dim>
					<dim>1</dim>
					<dim>1</dim>
				</port>
			</output>
		</layer>
		<layer id="158" name="landmarks_conv_leye_corner/WithoutBiases/fq_weights_1/minus_zp" type="Subtract" version="opset1">
			<data auto_broadcast="numpy"/>
			<input>
				<port id="0">
					<dim>256</dim>
					<dim>512</dim>
					<dim>1</dim>
					<dim>1</dim>
				</port>
				<port id="1">
					<dim>256</dim>
					<dim>1</dim>
					<dim>1</dim>
					<dim>1</dim>
				</port>
			</input>
			<output>
				<port id="2" precision="FP16">
					<dim>256</dim>
					<dim>512</dim>
					<dim>1</dim>
					<dim>1</dim>
				</port>
			</output>
		</layer>
		<layer id="159" name="landmarks_conv_leye_corner/WithoutBiases/fq_weights_1/scale8046_const" type="Const" version="opset1">
			<data element_type="f16" offset="1615744" shape="256,1,1,1" size="512"/>
			<output>
				<port id="0" precision="FP16">
					<dim>256</dim>
					<dim>1</dim>
					<dim>1</dim>
					<dim>1</dim>
				</port>
			</output>
		</layer>
		<layer id="160" name="landmarks_conv_leye_corner/WithoutBiases/fq_weights_1/mulpiply_by_scale" type="Multiply" version="opset1">
			<data auto_broadcast="numpy"/>
			<input>
				<port id="0">
					<dim>256</dim>
					<dim>512</dim>
					<dim>1</dim>
					<dim>1</dim>
				</port>
				<port id="1">
					<dim>256</dim>
					<dim>1</dim>
					<dim>1</dim>
					<dim>1</dim>
				</port>
			</input>
			<output>
				<port id="2" precision="FP16">
					<dim>256</dim>
					<dim>512</dim>
					<dim>1</dim>
					<dim>1</dim>
				</port>
			</output>
		</layer>
		<layer id="161" name="landmarks_conv_leye_corner/WithoutBiases" type="Convolution" version="opset1">
			<data auto_pad="explicit" dilations="1,1" pads_begin="0,0" pads_end="0,0" strides="1,1"/>
			<input>
				<port id="0">
					<dim>1</dim>
					<dim>512</dim>
					<dim>1</dim>
					<dim>1</dim>
				</port>
				<port id="1">
					<dim>256</dim>
					<dim>512</dim>
					<dim>1</dim>
					<dim>1</dim>
				</port>
			</input>
			<output>
				<port id="2" precision="FP16">
					<dim>1</dim>
					<dim>256</dim>
					<dim>1</dim>
					<dim>1</dim>
				</port>
			</output>
		</layer>
		<layer id="162" name="data_add_759876037815/EltwiseUnsqueeze8227_const514_const" type="Const" version="opset1">
			<data element_type="f16" offset="1616256" shape="1,256,1,1" size="512"/>
			<output>
				<port id="0" precision="FP16">
					<dim>1</dim>
					<dim>256</dim>
					<dim>1</dim>
					<dim>1</dim>
				</port>
			</output>
		</layer>
		<layer id="163" name="landmarks_conv_leye_corner/Fused_Add_" type="Add" version="opset1">
			<data auto_broadcast="numpy"/>
			<input>
				<port id="0">
					<dim>1</dim>
					<dim>256</dim>
					<dim>1</dim>
					<dim>1</dim>
				</port>
				<port id="1">
					<dim>1</dim>
					<dim>256</dim>
					<dim>1</dim>
					<dim>1</dim>
				</port>
			</input>
			<output>
				<port id="2" names="landmarks_conv_leye_corner" precision="FP16">
					<dim>1</dim>
					<dim>256</dim>
					<dim>1</dim>
					<dim>1</dim>
				</port>
			</output>
		</layer>
		<layer id="164" name="relu_leye_corner" type="ReLU" version="opset1">
			<input>
				<port id="0">
					<dim>1</dim>
					<dim>256</dim>
					<dim>1</dim>
					<dim>1</dim>
				</port>
			</input>
			<output>
				<port id="1" names="landmarks_conv_leye_corner,landmarks_conv_leye_corner" precision="FP16">
					<dim>1</dim>
					<dim>256</dim>
					<dim>1</dim>
					<dim>1</dim>
				</port>
			</output>
		</layer>
		<layer id="165" name="20442048_const" type="Const" version="opset1">
			<data element_type="f16" offset="544" shape="" size="2"/>
			<output>
				<port id="0" precision="FP16"/>
			</output>
		</layer>
		<layer id="166" name="20452049_const" type="Const" version="opset1">
			<data element_type="f16" offset="1616768" shape="" size="2"/>
			<output>
				<port id="0" precision="FP16"/>
			</output>
		</layer>
		<layer id="167" name="20462050_const" type="Const" version="opset1">
			<data element_type="f16" offset="544" shape="" size="2"/>
			<output>
				<port id="0" precision="FP16"/>
			</output>
		</layer>
		<layer id="168" name="20472051_const" type="Const" version="opset1">
			<data element_type="f16" offset="1616768" shape="" size="2"/>
			<output>
				<port id="0" precision="FP16"/>
			</output>
		</layer>
		<layer id="169" name="landmarks_fc_leye_corner_x_new/WithoutBiases/fq_input_0" type="FakeQuantize" version="opset1">
			<data auto_broadcast="numpy" levels="256"/>
			<input>
				<port id="0">
					<dim>1</dim>
					<dim>256</dim>
					<dim>1</dim>
					<dim>1</dim>
				</port>
				<port id="1"/>
				<port id="2"/>
				<port id="3"/>
				<port id="4"/>
			</input>
			<output>
				<port id="5" precision="FP16">
					<dim>1</dim>
					<dim>256</dim>
					<dim>1</dim>
					<dim>1</dim>
				</port>
			</output>
		</layer>
		<layer id="170" name="211/quantized8398_const" type="Const" version="opset1">
			<data element_type="i8" offset="1616770" shape="60,256,1,1" size="15360"/>
			<output>
				<port id="0" precision="I8">
					<dim>60</dim>
					<dim>256</dim>
					<dim>1</dim>
					<dim>1</dim>
				</port>
			</output>
		</layer>
		<layer id="171" name="211/quantized/to_f16" type="Convert" version="opset1">
			<data destination_type="f16"/>
			<input>
				<port id="0">
					<dim>60</dim>
					<dim>256</dim>
					<dim>1</dim>
					<dim>1</dim>
				</port>
			</input>
			<output>
				<port id="1" precision="FP16">
					<dim>60</dim>
					<dim>256</dim>
					<dim>1</dim>
					<dim>1</dim>
				</port>
			</output>
		</layer>
		<layer id="172" name="landmarks_fc_leye_corner_x_new/WithoutBiases/fq_weights_1/zero_point8411_const" type="Const" version="opset1">
			<data element_type="f16" offset="1632130" shape="60,1,1,1" size="120"/>
			<output>
				<port id="0" precision="FP16">
					<dim>60</dim>
					<dim>1</dim>
					<dim>1</dim>
					<dim>1</dim>
				</port>
			</output>
		</layer>
		<layer id="173" name="landmarks_fc_leye_corner_x_new/WithoutBiases/fq_weights_1/minus_zp" type="Subtract" version="opset1">
			<data auto_broadcast="numpy"/>
			<input>
				<port id="0">
					<dim>60</dim>
					<dim>256</dim>
					<dim>1</dim>
					<dim>1</dim>
				</port>
				<port id="1">
					<dim>60</dim>
					<dim>1</dim>
					<dim>1</dim>
					<dim>1</dim>
				</port>
			</input>
			<output>
				<port id="2" precision="FP16">
					<dim>60</dim>
					<dim>256</dim>
					<dim>1</dim>
					<dim>1</dim>
				</port>
			</output>
		</layer>
		<layer id="174" name="landmarks_fc_leye_corner_x_new/WithoutBiases/fq_weights_1/scale8406_const" type="Const" version="opset1">
			<data element_type="f16" offset="1632250" shape="60,1,1,1" size="120"/>
			<output>
				<port id="0" precision="FP16">
					<dim>60</dim>
					<dim>1</dim>
					<dim>1</dim>
					<dim>1</dim>
				</port>
			</output>
		</layer>
		<layer id="175" name="landmarks_fc_leye_corner_x_new/WithoutBiases/fq_weights_1/mulpiply_by_scale" type="Multiply" version="opset1">
			<data auto_broadcast="numpy"/>
			<input>
				<port id="0">
					<dim>60</dim>
					<dim>256</dim>
					<dim>1</dim>
					<dim>1</dim>
				</port>
				<port id="1">
					<dim>60</dim>
					<dim>1</dim>
					<dim>1</dim>
					<dim>1</dim>
				</port>
			</input>
			<output>
				<port id="2" precision="FP16">
					<dim>60</dim>
					<dim>256</dim>
					<dim>1</dim>
					<dim>1</dim>
				</port>
			</output>
		</layer>
		<layer id="176" name="landmarks_fc_leye_corner_x_new/WithoutBiases" type="Convolution" version="opset1">
			<data auto_pad="explicit" dilations="1,1" pads_begin="0,0" pads_end="0,0" strides="1,1"/>
			<input>
				<port id="0">
					<dim>1</dim>
					<dim>256</dim>
					<dim>1</dim>
					<dim>1</dim>
				</port>
				<port id="1">
					<dim>60</dim>
					<dim>256</dim>
					<dim>1</dim>
					<dim>1</dim>
				</port>
			</input>
			<output>
				<port id="2" precision="FP16">
					<dim>1</dim>
					<dim>60</dim>
					<dim>1</dim>
					<dim>1</dim>
				</port>
			</output>
		</layer>
		<layer id="177" name="landmarks_fc_leye_corner_x_new/Dims43327712/EltwiseUnsqueeze7823_const519_const" type="Const" version="opset1">
			<data element_type="f16" offset="1632370" shape="1,60,1,1" size="120"/>
			<output>
				<port id="0" precision="FP16">
					<dim>1</dim>
					<dim>60</dim>
					<dim>1</dim>
					<dim>1</dim>
				</port>
			</output>
		</layer>
		<layer id="178" name="landmarks_fc_leye_corner_x_new" type="Add" version="opset1">
			<data auto_broadcast="numpy"/>
			<input>
				<port id="0">
					<dim>1</dim>
					<dim>60</dim>
					<dim>1</dim>
					<dim>1</dim>
				</port>
				<port id="1">
					<dim>1</dim>
					<dim>60</dim>
					<dim>1</dim>
					<dim>1</dim>
				</port>
			</input>
			<output>
				<port id="2" names="landmarks_fc_leye_corner_x_new" precision="FP16">
					<dim>1</dim>
					<dim>60</dim>
					<dim>1</dim>
					<dim>1</dim>
				</port>
			</output>
		</layer>
		<layer id="179" name="softmax_landmarks_leye_corner_x" type="SoftMax" version="opset1">
			<data axis="1"/>
			<input>
				<port id="0">
					<dim>1</dim>
					<dim>60</dim>
					<dim>1</dim>
					<dim>1</dim>
				</port>
			</input>
			<output>
				<port id="1" names="softmax_landmarks_leye_corner_x" precision="FP16">
					<dim>1</dim>
					<dim>60</dim>
					<dim>1</dim>
					<dim>1</dim>
				</port>
			</output>
		</layer>
		<layer id="180" name="41914195_const" type="Const" version="opset1">
			<data element_type="f16" offset="544" shape="" size="2"/>
			<output>
				<port id="0" precision="FP16"/>
			</output>
		</layer>
		<layer id="181" name="41924196_const" type="Const" version="opset1">
			<data element_type="f16" offset="1632490" shape="" size="2"/>
			<output>
				<port id="0" precision="FP16"/>
			</output>
		</layer>
		<layer id="182" name="41934197_const" type="Const" version="opset1">
			<data element_type="f16" offset="544" shape="" size="2"/>
			<output>
				<port id="0" precision="FP16"/>
			</output>
		</layer>
		<layer id="183" name="41944198_const" type="Const" version="opset1">
			<data element_type="f16" offset="1632490" shape="" size="2"/>
			<output>
				<port id="0" precision="FP16"/>
			</output>
		</layer>
		<layer id="184" name="raw_predicts/fq_input_0" type="FakeQuantize" version="opset1">
			<data auto_broadcast="numpy" levels="256"/>
			<input>
				<port id="0">
					<dim>1</dim>
					<dim>60</dim>
					<dim>1</dim>
					<dim>1</dim>
				</port>
				<port id="1"/>
				<port id="2"/>
				<port id="3"/>
				<port id="4"/>
			</input>
			<output>
				<port id="5" precision="FP16">
					<dim>1</dim>
					<dim>60</dim>
					<dim>1</dim>
					<dim>1</dim>
				</port>
			</output>
		</layer>
		<layer id="185" name="417/quantized9118_const" type="Const" version="opset1">
			<data element_type="i8" offset="1632492" shape="60,256,1,1" size="15360"/>
			<output>
				<port id="0" precision="I8">
					<dim>60</dim>
					<dim>256</dim>
					<dim>1</dim>
					<dim>1</dim>
				</port>
			</output>
		</layer>
		<layer id="186" name="417/quantized/to_f16" type="Convert" version="opset1">
			<data destination_type="f16"/>
			<input>
				<port id="0">
					<dim>60</dim>
					<dim>256</dim>
					<dim>1</dim>
					<dim>1</dim>
				</port>
			</input>
			<output>
				<port id="1" precision="FP16">
					<dim>60</dim>
					<dim>256</dim>
					<dim>1</dim>
					<dim>1</dim>
				</port>
			</output>
		</layer>
		<layer id="187" name="landmarks_fc_leye_corner_y_new/WithoutBiases/fq_weights_1/zero_point9131_const" type="Const" version="opset1">
			<data element_type="f16" offset="1647852" shape="60,1,1,1" size="120"/>
			<output>
				<port id="0" precision="FP16">
					<dim>60</dim>
					<dim>1</dim>
					<dim>1</dim>
					<dim>1</dim>
				</port>
			</output>
		</layer>
		<layer id="188" name="landmarks_fc_leye_corner_y_new/WithoutBiases/fq_weights_1/minus_zp" type="Subtract" version="opset1">
			<data auto_broadcast="numpy"/>
			<input>
				<port id="0">
					<dim>60</dim>
					<dim>256</dim>
					<dim>1</dim>
					<dim>1</dim>
				</port>
				<port id="1">
					<dim>60</dim>
					<dim>1</dim>
					<dim>1</dim>
					<dim>1</dim>
				</port>
			</input>
			<output>
				<port id="2" precision="FP16">
					<dim>60</dim>
					<dim>256</dim>
					<dim>1</dim>
					<dim>1</dim>
				</port>
			</output>
		</layer>
		<layer id="189" name="landmarks_fc_leye_corner_y_new/WithoutBiases/fq_weights_1/scale9126_const" type="Const" version="opset1">
			<data element_type="f16" offset="1647972" shape="60,1,1,1" size="120"/>
			<output>
				<port id="0" precision="FP16">
					<dim>60</dim>
					<dim>1</dim>
					<dim>1</dim>
					<dim>1</dim>
				</port>
			</output>
		</layer>
		<layer id="190" name="landmarks_fc_leye_corner_y_new/WithoutBiases/fq_weights_1/mulpiply_by_scale" type="Multiply" version="opset1">
			<data auto_broadcast="numpy"/>
			<input>
				<port id="0">
					<dim>60</dim>
					<dim>256</dim>
					<dim>1</dim>
					<dim>1</dim>
				</port>
				<port id="1">
					<dim>60</dim>
					<dim>1</dim>
					<dim>1</dim>
					<dim>1</dim>
				</port>
			</input>
			<output>
				<port id="2" precision="FP16">
					<dim>60</dim>
					<dim>256</dim>
					<dim>1</dim>
					<dim>1</dim>
				</port>
			</output>
		</layer>
		<layer id="191" name="landmarks_fc_leye_corner_y_new/WithoutBiases" type="Convolution" version="opset1">
			<data auto_pad="explicit" dilations="1,1" pads_begin="0,0" pads_end="0,0" strides="1,1"/>
			<input>
				<port id="0">
					<dim>1</dim>
					<dim>256</dim>
					<dim>1</dim>
					<dim>1</dim>
				</port>
				<port id="1">
					<dim>60</dim>
					<dim>256</dim>
					<dim>1</dim>
					<dim>1</dim>
				</port>
			</input>
			<output>
				<port id="2" precision="FP16">
					<dim>1</dim>
					<dim>60</dim>
					<dim>1</dim>
					<dim>1</dim>
				</port>
			</output>
		</layer>
		<layer id="192" name="landmarks_fc_leye_corner_y_new/Dims47287767/EltwiseUnsqueeze8043_const524_const" type="Const" version="opset1">
			<data element_type="f16" offset="1648092" shape="1,60,1,1" size="120"/>
			<output>
				<port id="0" precision="FP16">
					<dim>1</dim>
					<dim>60</dim>
					<dim>1</dim>
					<dim>1</dim>
				</port>
			</output>
		</layer>
		<layer id="193" name="landmarks_fc_leye_corner_y_new" type="Add" version="opset1">
			<data auto_broadcast="numpy"/>
			<input>
				<port id="0">
					<dim>1</dim>
					<dim>60</dim>
					<dim>1</dim>
					<dim>1</dim>
				</port>
				<port id="1">
					<dim>1</dim>
					<dim>60</dim>
					<dim>1</dim>
					<dim>1</dim>
				</port>
			</input>
			<output>
				<port id="2" names="landmarks_fc_leye_corner_y_new" precision="FP16">
					<dim>1</dim>
					<dim>60</dim>
					<dim>1</dim>
					<dim>1</dim>
				</port>
			</output>
		</layer>
		<layer id="194" name="softmax_landmarks_leye_corner_y" type="SoftMax" version="opset1">
			<data axis="1"/>
			<input>
				<port id="0">
					<dim>1</dim>
					<dim>60</dim>
					<dim>1</dim>
					<dim>1</dim>
				</port>
			</input>
			<output>
				<port id="1" names="softmax_landmarks_leye_corner_y" precision="FP16">
					<dim>1</dim>
					<dim>60</dim>
					<dim>1</dim>
					<dim>1</dim>
				</port>
			</output>
		</layer>
		<layer id="195" name="42014205_const" type="Const" version="opset1">
			<data element_type="f16" offset="544" shape="" size="2"/>
			<output>
				<port id="0" precision="FP16"/>
			</output>
		</layer>
		<layer id="196" name="42024206_const" type="Const" version="opset1">
			<data element_type="f16" offset="1648212" shape="" size="2"/>
			<output>
				<port id="0" precision="FP16"/>
			</output>
		</layer>
		<layer id="197" name="42034207_const" type="Const" version="opset1">
			<data element_type="f16" offset="544" shape="" size="2"/>
			<output>
				<port id="0" precision="FP16"/>
			</output>
		</layer>
		<layer id="198" name="42044208_const" type="Const" version="opset1">
			<data element_type="f16" offset="1648212" shape="" size="2"/>
			<output>
				<port id="0" precision="FP16"/>
			</output>
		</layer>
		<layer id="199" name="raw_predicts/fq_input_1" type="FakeQuantize" version="opset1">
			<data auto_broadcast="numpy" levels="256"/>
			<input>
				<port id="0">
					<dim>1</dim>
					<dim>60</dim>
					<dim>1</dim>
					<dim>1</dim>
				</port>
				<port id="1"/>
				<port id="2"/>
				<port id="3"/>
				<port id="4"/>
			</input>
			<output>
				<port id="5" precision="FP16">
					<dim>1</dim>
					<dim>60</dim>
					<dim>1</dim>
					<dim>1</dim>
				</port>
			</output>
		</layer>
		<layer id="200" name="341/quantized8350_const" type="Const" version="opset1">
			<data element_type="i8" offset="1648214" shape="60,256,1,1" size="15360"/>
			<output>
				<port id="0" precision="I8">
					<dim>60</dim>
					<dim>256</dim>
					<dim>1</dim>
					<dim>1</dim>
				</port>
			</output>
		</layer>
		<layer id="201" name="341/quantized/to_f16" type="Convert" version="opset1">
			<data destination_type="f16"/>
			<input>
				<port id="0">
					<dim>60</dim>
					<dim>256</dim>
					<dim>1</dim>
					<dim>1</dim>
				</port>
			</input>
			<output>
				<port id="1" precision="FP16">
					<dim>60</dim>
					<dim>256</dim>
					<dim>1</dim>
					<dim>1</dim>
				</port>
			</output>
		</layer>
		<layer id="202" name="landmarks_fc_leye_x_new/WithoutBiases/fq_weights_1/zero_point8363_const" type="Const" version="opset1">
			<data element_type="f16" offset="1663574" shape="60,1,1,1" size="120"/>
			<output>
				<port id="0" precision="FP16">
					<dim>60</dim>
					<dim>1</dim>
					<dim>1</dim>
					<dim>1</dim>
				</port>
			</output>
		</layer>
		<layer id="203" name="landmarks_fc_leye_x_new/WithoutBiases/fq_weights_1/minus_zp" type="Subtract" version="opset1">
			<data auto_broadcast="numpy"/>
			<input>
				<port id="0">
					<dim>60</dim>
					<dim>256</dim>
					<dim>1</dim>
					<dim>1</dim>
				</port>
				<port id="1">
					<dim>60</dim>
					<dim>1</dim>
					<dim>1</dim>
					<dim>1</dim>
				</port>
			</input>
			<output>
				<port id="2" precision="FP16">
					<dim>60</dim>
					<dim>256</dim>
					<dim>1</dim>
					<dim>1</dim>
				</port>
			</output>
		</layer>
		<layer id="204" name="landmarks_fc_leye_x_new/WithoutBiases/fq_weights_1/scale8358_const" type="Const" version="opset1">
			<data element_type="f16" offset="1663694" shape="60,1,1,1" size="120"/>
			<output>
				<port id="0" precision="FP16">
					<dim>60</dim>
					<dim>1</dim>
					<dim>1</dim>
					<dim>1</dim>
				</port>
			</output>
		</layer>
		<layer id="205" name="landmarks_fc_leye_x_new/WithoutBiases/fq_weights_1/mulpiply_by_scale" type="Multiply" version="opset1">
			<data auto_broadcast="numpy"/>
			<input>
				<port id="0">
					<dim>60</dim>
					<dim>256</dim>
					<dim>1</dim>
					<dim>1</dim>
				</port>
				<port id="1">
					<dim>60</dim>
					<dim>1</dim>
					<dim>1</dim>
					<dim>1</dim>
				</port>
			</input>
			<output>
				<port id="2" precision="FP16">
					<dim>60</dim>
					<dim>256</dim>
					<dim>1</dim>
					<dim>1</dim>
				</port>
			</output>
		</layer>
		<layer id="206" name="landmarks_fc_leye_x_new/WithoutBiases" type="Convolution" version="opset1">
			<data auto_pad="explicit" dilations="1,1" pads_begin="0,0" pads_end="0,0" strides="1,1"/>
			<input>
				<port id="0">
					<dim>1</dim>
					<dim>256</dim>
					<dim>1</dim>
					<dim>1</dim>
				</port>
				<port id="1">
					<dim>60</dim>
					<dim>256</dim>
					<dim>1</dim>
					<dim>1</dim>
				</port>
			</input>
			<output>
				<port id="2" precision="FP16">
					<dim>1</dim>
					<dim>60</dim>
					<dim>1</dim>
					<dim>1</dim>
				</port>
			</output>
		</layer>
		<layer id="207" name="landmarks_fc_leye_x_new/Dims48247782/EltwiseUnsqueeze8103_const529_const" type="Const" version="opset1">
			<data element_type="f16" offset="1663814" shape="1,60,1,1" size="120"/>
			<output>
				<port id="0" precision="FP16">
					<dim>1</dim>
					<dim>60</dim>
					<dim>1</dim>
					<dim>1</dim>
				</port>
			</output>
		</layer>
		<layer id="208" name="landmarks_fc_leye_x_new" type="Add" version="opset1">
			<data auto_broadcast="numpy"/>
			<input>
				<port id="0">
					<dim>1</dim>
					<dim>60</dim>
					<dim>1</dim>
					<dim>1</dim>
				</port>
				<port id="1">
					<dim>1</dim>
					<dim>60</dim>
					<dim>1</dim>
					<dim>1</dim>
				</port>
			</input>
			<output>
				<port id="2" names="landmarks_fc_leye_x_new" precision="FP16">
					<dim>1</dim>
					<dim>60</dim>
					<dim>1</dim>
					<dim>1</dim>
				</port>
			</output>
		</layer>
		<layer id="209" name="softmax_landmarks_leye_x" type="SoftMax" version="opset1">
			<data axis="1"/>
			<input>
				<port id="0">
					<dim>1</dim>
					<dim>60</dim>
					<dim>1</dim>
					<dim>1</dim>
				</port>
			</input>
			<output>
				<port id="1" names="softmax_landmarks_leye_x" precision="FP16">
					<dim>1</dim>
					<dim>60</dim>
					<dim>1</dim>
					<dim>1</dim>
				</port>
			</output>
		</layer>
		<layer id="210" name="43114315_const" type="Const" version="opset1">
			<data element_type="f16" offset="544" shape="" size="2"/>
			<output>
				<port id="0" precision="FP16"/>
			</output>
		</layer>
		<layer id="211" name="43124316_const" type="Const" version="opset1">
			<data element_type="f16" offset="1663934" shape="" size="2"/>
			<output>
				<port id="0" precision="FP16"/>
			</output>
		</layer>
		<layer id="212" name="43134317_const" type="Const" version="opset1">
			<data element_type="f16" offset="544" shape="" size="2"/>
			<output>
				<port id="0" precision="FP16"/>
			</output>
		</layer>
		<layer id="213" name="43144318_const" type="Const" version="opset1">
			<data element_type="f16" offset="1663934" shape="" size="2"/>
			<output>
				<port id="0" precision="FP16"/>
			</output>
		</layer>
		<layer id="214" name="raw_predicts/fq_input_2" type="FakeQuantize" version="opset1">
			<data auto_broadcast="numpy" levels="256"/>
			<input>
				<port id="0">
					<dim>1</dim>
					<dim>60</dim>
					<dim>1</dim>
					<dim>1</dim>
				</port>
				<port id="1"/>
				<port id="2"/>
				<port id="3"/>
				<port id="4"/>
			</input>
			<output>
				<port id="5" precision="FP16">
					<dim>1</dim>
					<dim>60</dim>
					<dim>1</dim>
					<dim>1</dim>
				</port>
			</output>
		</layer>
		<layer id="215" name="351/quantized9166_const" type="Const" version="opset1">
			<data element_type="i8" offset="1663936" shape="60,256,1,1" size="15360"/>
			<output>
				<port id="0" precision="I8">
					<dim>60</dim>
					<dim>256</dim>
					<dim>1</dim>
					<dim>1</dim>
				</port>
			</output>
		</layer>
		<layer id="216" name="351/quantized/to_f16" type="Convert" version="opset1">
			<data destination_type="f16"/>
			<input>
				<port id="0">
					<dim>60</dim>
					<dim>256</dim>
					<dim>1</dim>
					<dim>1</dim>
				</port>
			</input>
			<output>
				<port id="1" precision="FP16">
					<dim>60</dim>
					<dim>256</dim>
					<dim>1</dim>
					<dim>1</dim>
				</port>
			</output>
		</layer>
		<layer id="217" name="landmarks_fc_leye_y_new/WithoutBiases/fq_weights_1/zero_point9179_const" type="Const" version="opset1">
			<data element_type="f16" offset="1679296" shape="60,1,1,1" size="120"/>
			<output>
				<port id="0" precision="FP16">
					<dim>60</dim>
					<dim>1</dim>
					<dim>1</dim>
					<dim>1</dim>
				</port>
			</output>
		</layer>
		<layer id="218" name="landmarks_fc_leye_y_new/WithoutBiases/fq_weights_1/minus_zp" type="Subtract" version="opset1">
			<data auto_broadcast="numpy"/>
			<input>
				<port id="0">
					<dim>60</dim>
					<dim>256</dim>
					<dim>1</dim>
					<dim>1</dim>
				</port>
				<port id="1">
					<dim>60</dim>
					<dim>1</dim>
					<dim>1</dim>
					<dim>1</dim>
				</port>
			</input>
			<output>
				<port id="2" precision="FP16">
					<dim>60</dim>
					<dim>256</dim>
					<dim>1</dim>
					<dim>1</dim>
				</port>
			</output>
		</layer>
		<layer id="219" name="landmarks_fc_leye_y_new/WithoutBiases/fq_weights_1/scale9174_const" type="Const" version="opset1">
			<data element_type="f16" offset="1679416" shape="60,1,1,1" size="120"/>
			<output>
				<port id="0" precision="FP16">
					<dim>60</dim>
					<dim>1</dim>
					<dim>1</dim>
					<dim>1</dim>
				</port>
			</output>
		</layer>
		<layer id="220" name="landmarks_fc_leye_y_new/WithoutBiases/fq_weights_1/mulpiply_by_scale" type="Multiply" version="opset1">
			<data auto_broadcast="numpy"/>
			<input>
				<port id="0">
					<dim>60</dim>
					<dim>256</dim>
					<dim>1</dim>
					<dim>1</dim>
				</port>
				<port id="1">
					<dim>60</dim>
					<dim>1</dim>
					<dim>1</dim>
					<dim>1</dim>
				</port>
			</input>
			<output>
				<port id="2" precision="FP16">
					<dim>60</dim>
					<dim>256</dim>
					<dim>1</dim>
					<dim>1</dim>
				</port>
			</output>
		</layer>
		<layer id="221" name="landmarks_fc_leye_y_new/WithoutBiases" type="Convolution" version="opset1">
			<data auto_pad="explicit" dilations="1,1" pads_begin="0,0" pads_end="0,0" strides="1,1"/>
			<input>
				<port id="0">
					<dim>1</dim>
					<dim>256</dim>
					<dim>1</dim>
					<dim>1</dim>
				</port>
				<port id="1">
					<dim>60</dim>
					<dim>256</dim>
					<dim>1</dim>
					<dim>1</dim>
				</port>
			</input>
			<output>
				<port id="2" precision="FP16">
					<dim>1</dim>
					<dim>60</dim>
					<dim>1</dim>
					<dim>1</dim>
				</port>
			</output>
		</layer>
		<layer id="222" name="landmarks_fc_leye_y_new/Dims45307741/EltwiseUnsqueeze7939_const534_const" type="Const" version="opset1">
			<data element_type="f16" offset="1679536" shape="1,60,1,1" size="120"/>
			<output>
				<port id="0" precision="FP16">
					<dim>1</dim>
					<dim>60</dim>
					<dim>1</dim>
					<dim>1</dim>
				</port>
			</output>
		</layer>
		<layer id="223" name="landmarks_fc_leye_y_new" type="Add" version="opset1">
			<data auto_broadcast="numpy"/>
			<input>
				<port id="0">
					<dim>1</dim>
					<dim>60</dim>
					<dim>1</dim>
					<dim>1</dim>
				</port>
				<port id="1">
					<dim>1</dim>
					<dim>60</dim>
					<dim>1</dim>
					<dim>1</dim>
				</port>
			</input>
			<output>
				<port id="2" names="landmarks_fc_leye_y_new" precision="FP16">
					<dim>1</dim>
					<dim>60</dim>
					<dim>1</dim>
					<dim>1</dim>
				</port>
			</output>
		</layer>
		<layer id="224" name="softmax_landmarks_leye_y" type="SoftMax" version="opset1">
			<data axis="1"/>
			<input>
				<port id="0">
					<dim>1</dim>
					<dim>60</dim>
					<dim>1</dim>
					<dim>1</dim>
				</port>
			</input>
			<output>
				<port id="1" names="softmax_landmarks_leye_y" precision="FP16">
					<dim>1</dim>
					<dim>60</dim>
					<dim>1</dim>
					<dim>1</dim>
				</port>
			</output>
		</layer>
		<layer id="225" name="44214425_const" type="Const" version="opset1">
			<data element_type="f16" offset="544" shape="" size="2"/>
			<output>
				<port id="0" precision="FP16"/>
			</output>
		</layer>
		<layer id="226" name="44224426_const" type="Const" version="opset1">
			<data element_type="f16" offset="1679656" shape="" size="2"/>
			<output>
				<port id="0" precision="FP16"/>
			</output>
		</layer>
		<layer id="227" name="44234427_const" type="Const" version="opset1">
			<data element_type="f16" offset="544" shape="" size="2"/>
			<output>
				<port id="0" precision="FP16"/>
			</output>
		</layer>
		<layer id="228" name="44244428_const" type="Const" version="opset1">
			<data element_type="f16" offset="1679656" shape="" size="2"/>
			<output>
				<port id="0" precision="FP16"/>
			</output>
		</layer>
		<layer id="229" name="raw_predicts/fq_input_3" type="FakeQuantize" version="opset1">
			<data auto_broadcast="numpy" levels="256"/>
			<input>
				<port id="0">
					<dim>1</dim>
					<dim>60</dim>
					<dim>1</dim>
					<dim>1</dim>
				</port>
				<port id="1"/>
				<port id="2"/>
				<port id="3"/>
				<port id="4"/>
			</input>
			<output>
				<port id="5" precision="FP16">
					<dim>1</dim>
					<dim>60</dim>
					<dim>1</dim>
					<dim>1</dim>
				</port>
			</output>
		</layer>
		<layer id="230" name="bn/landmarks_conv_reye/mean/Fused_Mul_84848486_const5377012/quantized8902_const" type="Const" version="opset1">
			<data element_type="i8" offset="1679658" shape="256,512,1,1" size="131072"/>
			<output>
				<port id="0" precision="I8">
					<dim>256</dim>
					<dim>512</dim>
					<dim>1</dim>
					<dim>1</dim>
				</port>
			</output>
		</layer>
		<layer id="231" name="bn/landmarks_conv_reye/mean/Fused_Mul_84848486_const5377012/quantized/to_f16" type="Convert" version="opset1">
			<data destination_type="f16"/>
			<input>
				<port id="0">
					<dim>256</dim>
					<dim>512</dim>
					<dim>1</dim>
					<dim>1</dim>
				</port>
			</input>
			<output>
				<port id="1" precision="FP16">
					<dim>256</dim>
					<dim>512</dim>
					<dim>1</dim>
					<dim>1</dim>
				</port>
			</output>
		</layer>
		<layer id="232" name="landmarks_conv_reye/WithoutBiases/fq_weights_1/zero_point8915_const" type="Const" version="opset1">
			<data element_type="f16" offset="1810730" shape="256,1,1,1" size="512"/>
			<output>
				<port id="0" precision="FP16">
					<dim>256</dim>
					<dim>1</dim>
					<dim>1</dim>
					<dim>1</dim>
				</port>
			</output>
		</layer>
		<layer id="233" name="landmarks_conv_reye/WithoutBiases/fq_weights_1/minus_zp" type="Subtract" version="opset1">
			<data auto_broadcast="numpy"/>
			<input>
				<port id="0">
					<dim>256</dim>
					<dim>512</dim>
					<dim>1</dim>
					<dim>1</dim>
				</port>
				<port id="1">
					<dim>256</dim>
					<dim>1</dim>
					<dim>1</dim>
					<dim>1</dim>
				</port>
			</input>
			<output>
				<port id="2" precision="FP16">
					<dim>256</dim>
					<dim>512</dim>
					<dim>1</dim>
					<dim>1</dim>
				</port>
			</output>
		</layer>
		<layer id="234" name="landmarks_conv_reye/WithoutBiases/fq_weights_1/scale8910_const" type="Const" version="opset1">
			<data element_type="f16" offset="1811242" shape="256,1,1,1" size="512"/>
			<output>
				<port id="0" precision="FP16">
					<dim>256</dim>
					<dim>1</dim>
					<dim>1</dim>
					<dim>1</dim>
				</port>
			</output>
		</layer>
		<layer id="235" name="landmarks_conv_reye/WithoutBiases/fq_weights_1/mulpiply_by_scale" type="Multiply" version="opset1">
			<data auto_broadcast="numpy"/>
			<input>
				<port id="0">
					<dim>256</dim>
					<dim>512</dim>
					<dim>1</dim>
					<dim>1</dim>
				</port>
				<port id="1">
					<dim>256</dim>
					<dim>1</dim>
					<dim>1</dim>
					<dim>1</dim>
				</port>
			</input>
			<output>
				<port id="2" precision="FP16">
					<dim>256</dim>
					<dim>512</dim>
					<dim>1</dim>
					<dim>1</dim>
				</port>
			</output>
		</layer>
		<layer id="236" name="landmarks_conv_reye/WithoutBiases" type="Convolution" version="opset1">
			<data auto_pad="explicit" dilations="1,1" pads_begin="0,0" pads_end="0,0" strides="1,1"/>
			<input>
				<port id="0">
					<dim>1</dim>
					<dim>512</dim>
					<dim>1</dim>
					<dim>1</dim>
				</port>
				<port id="1">
					<dim>256</dim>
					<dim>512</dim>
					<dim>1</dim>
					<dim>1</dim>
				</port>
			</input>
			<output>
				<port id="2" precision="FP16">
					<dim>1</dim>
					<dim>256</dim>
					<dim>1</dim>
					<dim>1</dim>
				</port>
			</output>
		</layer>
		<layer id="237" name="data_add_759075957813/EltwiseUnsqueeze8219_const539_const" type="Const" version="opset1">
			<data element_type="f16" offset="1811754" shape="1,256,1,1" size="512"/>
			<output>
				<port id="0" precision="FP16">
					<dim>1</dim>
					<dim>256</dim>
					<dim>1</dim>
					<dim>1</dim>
				</port>
			</output>
		</layer>
		<layer id="238" name="landmarks_conv_reye/Fused_Add_" type="Add" version="opset1">
			<data auto_broadcast="numpy"/>
			<input>
				<port id="0">
					<dim>1</dim>
					<dim>256</dim>
					<dim>1</dim>
					<dim>1</dim>
				</port>
				<port id="1">
					<dim>1</dim>
					<dim>256</dim>
					<dim>1</dim>
					<dim>1</dim>
				</port>
			</input>
			<output>
				<port id="2" names="landmarks_conv_reye" precision="FP16">
					<dim>1</dim>
					<dim>256</dim>
					<dim>1</dim>
					<dim>1</dim>
				</port>
			</output>
		</layer>
		<layer id="239" name="relu_reye" type="ReLU" version="opset1">
			<input>
				<port id="0">
					<dim>1</dim>
					<dim>256</dim>
					<dim>1</dim>
					<dim>1</dim>
				</port>
			</input>
			<output>
				<port id="1" names="landmarks_conv_reye,landmarks_conv_reye" precision="FP16">
					<dim>1</dim>
					<dim>256</dim>
					<dim>1</dim>
					<dim>1</dim>
				</port>
			</output>
		</layer>
		<layer id="240" name="24042408_const" type="Const" version="opset1">
			<data element_type="f16" offset="544" shape="" size="2"/>
			<output>
				<port id="0" precision="FP16"/>
			</output>
		</layer>
		<layer id="241" name="24052409_const" type="Const" version="opset1">
			<data element_type="f16" offset="1812266" shape="" size="2"/>
			<output>
				<port id="0" precision="FP16"/>
			</output>
		</layer>
		<layer id="242" name="24062410_const" type="Const" version="opset1">
			<data element_type="f16" offset="544" shape="" size="2"/>
			<output>
				<port id="0" precision="FP16"/>
			</output>
		</layer>
		<layer id="243" name="24072411_const" type="Const" version="opset1">
			<data element_type="f16" offset="1812266" shape="" size="2"/>
			<output>
				<port id="0" precision="FP16"/>
			</output>
		</layer>
		<layer id="244" name="landmarks_fc_reye_corner_x_new/WithoutBiases/fq_input_0" type="FakeQuantize" version="opset1">
			<data auto_broadcast="numpy" levels="256"/>
			<input>
				<port id="0">
					<dim>1</dim>
					<dim>256</dim>
					<dim>1</dim>
					<dim>1</dim>
				</port>
				<port id="1"/>
				<port id="2"/>
				<port id="3"/>
				<port id="4"/>
			</input>
			<output>
				<port id="5" precision="FP16">
					<dim>1</dim>
					<dim>256</dim>
					<dim>1</dim>
					<dim>1</dim>
				</port>
			</output>
		</layer>
		<layer id="245" name="311/quantized9694_const" type="Const" version="opset1">
			<data element_type="i8" offset="1812268" shape="60,256,1,1" size="15360"/>
			<output>
				<port id="0" precision="I8">
					<dim>60</dim>
					<dim>256</dim>
					<dim>1</dim>
					<dim>1</dim>
				</port>
			</output>
		</layer>
		<layer id="246" name="311/quantized/to_f16" type="Convert" version="opset1">
			<data destination_type="f16"/>
			<input>
				<port id="0">
					<dim>60</dim>
					<dim>256</dim>
					<dim>1</dim>
					<dim>1</dim>
				</port>
			</input>
			<output>
				<port id="1" precision="FP16">
					<dim>60</dim>
					<dim>256</dim>
					<dim>1</dim>
					<dim>1</dim>
				</port>
			</output>
		</layer>
		<layer id="247" name="landmarks_fc_reye_x_new/WithoutBiases/fq_weights_1/zero_point9707_const" type="Const" version="opset1">
			<data element_type="f16" offset="1827628" shape="60,1,1,1" size="120"/>
			<output>
				<port id="0" precision="FP16">
					<dim>60</dim>
					<dim>1</dim>
					<dim>1</dim>
					<dim>1</dim>
				</port>
			</output>
		</layer>
		<layer id="248" name="landmarks_fc_reye_x_new/WithoutBiases/fq_weights_1/minus_zp" type="Subtract" version="opset1">
			<data auto_broadcast="numpy"/>
			<input>
				<port id="0">
					<dim>60</dim>
					<dim>256</dim>
					<dim>1</dim>
					<dim>1</dim>
				</port>
				<port id="1">
					<dim>60</dim>
					<dim>1</dim>
					<dim>1</dim>
					<dim>1</dim>
				</port>
			</input>
			<output>
				<port id="2" precision="FP16">
					<dim>60</dim>
					<dim>256</dim>
					<dim>1</dim>
					<dim>1</dim>
				</port>
			</output>
		</layer>
		<layer id="249" name="landmarks_fc_reye_x_new/WithoutBiases/fq_weights_1/scale9702_const" type="Const" version="opset1">
			<data element_type="f16" offset="1827748" shape="60,1,1,1" size="120"/>
			<output>
				<port id="0" precision="FP16">
					<dim>60</dim>
					<dim>1</dim>
					<dim>1</dim>
					<dim>1</dim>
				</port>
			</output>
		</layer>
		<layer id="250" name="landmarks_fc_reye_x_new/WithoutBiases/fq_weights_1/mulpiply_by_scale" type="Multiply" version="opset1">
			<data auto_broadcast="numpy"/>
			<input>
				<port id="0">
					<dim>60</dim>
					<dim>256</dim>
					<dim>1</dim>
					<dim>1</dim>
				</port>
				<port id="1">
					<dim>60</dim>
					<dim>1</dim>
					<dim>1</dim>
					<dim>1</dim>
				</port>
			</input>
			<output>
				<port id="2" precision="FP16">
					<dim>60</dim>
					<dim>256</dim>
					<dim>1</dim>
					<dim>1</dim>
				</port>
			</output>
		</layer>
		<layer id="251" name="landmarks_fc_reye_x_new/WithoutBiases" type="Convolution" version="opset1">
			<data auto_pad="explicit" dilations="1,1" pads_begin="0,0" pads_end="0,0" strides="1,1"/>
			<input>
				<port id="0">
					<dim>1</dim>
					<dim>256</dim>
					<dim>1</dim>
					<dim>1</dim>
				</port>
				<port id="1">
					<dim>60</dim>
					<dim>256</dim>
					<dim>1</dim>
					<dim>1</dim>
				</port>
			</input>
			<output>
				<port id="2" precision="FP16">
					<dim>1</dim>
					<dim>60</dim>
					<dim>1</dim>
					<dim>1</dim>
				</port>
			</output>
		</layer>
		<layer id="252" name="landmarks_fc_reye_x_new/Dims43627717/EltwiseUnsqueeze7843_const544_const" type="Const" version="opset1">
			<data element_type="f16" offset="1827868" shape="1,60,1,1" size="120"/>
			<output>
				<port id="0" precision="FP16">
					<dim>1</dim>
					<dim>60</dim>
					<dim>1</dim>
					<dim>1</dim>
				</port>
			</output>
		</layer>
		<layer id="253" name="landmarks_fc_reye_x_new" type="Add" version="opset1">
			<data auto_broadcast="numpy"/>
			<input>
				<port id="0">
					<dim>1</dim>
					<dim>60</dim>
					<dim>1</dim>
					<dim>1</dim>
				</port>
				<port id="1">
					<dim>1</dim>
					<dim>60</dim>
					<dim>1</dim>
					<dim>1</dim>
				</port>
			</input>
			<output>
				<port id="2" names="landmarks_fc_reye_x_new" precision="FP16">
					<dim>1</dim>
					<dim>60</dim>
					<dim>1</dim>
					<dim>1</dim>
				</port>
			</output>
		</layer>
		<layer id="254" name="softmax_landmarks_reye_x" type="SoftMax" version="opset1">
			<data axis="1"/>
			<input>
				<port id="0">
					<dim>1</dim>
					<dim>60</dim>
					<dim>1</dim>
					<dim>1</dim>
				</port>
			</input>
			<output>
				<port id="1" names="softmax_landmarks_reye_x" precision="FP16">
					<dim>1</dim>
					<dim>60</dim>
					<dim>1</dim>
					<dim>1</dim>
				</port>
			</output>
		</layer>
		<layer id="255" name="45314535_const" type="Const" version="opset1">
			<data element_type="f16" offset="544" shape="" size="2"/>
			<output>
				<port id="0" precision="FP16"/>
			</output>
		</layer>
		<layer id="256" name="45324536_const" type="Const" version="opset1">
			<data element_type="f16" offset="1827988" shape="" size="2"/>
			<output>
				<port id="0" precision="FP16"/>
			</output>
		</layer>
		<layer id="257" name="45334537_const" type="Const" version="opset1">
			<data element_type="f16" offset="544" shape="" size="2"/>
			<output>
				<port id="0" precision="FP16"/>
			</output>
		</layer>
		<layer id="258" name="45344538_const" type="Const" version="opset1">
			<data element_type="f16" offset="1827988" shape="" size="2"/>
			<output>
				<port id="0" precision="FP16"/>
			</output>
		</layer>
		<layer id="259" name="raw_predicts/fq_input_4" type="FakeQuantize" version="opset1">
			<data auto_broadcast="numpy" levels="256"/>
			<input>
				<port id="0">
					<dim>1</dim>
					<dim>60</dim>
					<dim>1</dim>
					<dim>1</dim>
				</port>
				<port id="1"/>
				<port id="2"/>
				<port id="3"/>
				<port id="4"/>
			</input>
			<output>
				<port id="5" precision="FP16">
					<dim>1</dim>
					<dim>60</dim>
					<dim>1</dim>
					<dim>1</dim>
				</port>
			</output>
		</layer>
		<layer id="260" name="215/quantized8974_const" type="Const" version="opset1">
			<data element_type="i8" offset="1827990" shape="60,256,1,1" size="15360"/>
			<output>
				<port id="0" precision="I8">
					<dim>60</dim>
					<dim>256</dim>
					<dim>1</dim>
					<dim>1</dim>
				</port>
			</output>
		</layer>
		<layer id="261" name="215/quantized/to_f16" type="Convert" version="opset1">
			<data destination_type="f16"/>
			<input>
				<port id="0">
					<dim>60</dim>
					<dim>256</dim>
					<dim>1</dim>
					<dim>1</dim>
				</port>
			</input>
			<output>
				<port id="1" precision="FP16">
					<dim>60</dim>
					<dim>256</dim>
					<dim>1</dim>
					<dim>1</dim>
				</port>
			</output>
		</layer>
		<layer id="262" name="landmarks_fc_reye_y_new/WithoutBiases/fq_weights_1/zero_point8987_const" type="Const" version="opset1">
			<data element_type="f16" offset="1843350" shape="60,1,1,1" size="120"/>
			<output>
				<port id="0" precision="FP16">
					<dim>60</dim>
					<dim>1</dim>
					<dim>1</dim>
					<dim>1</dim>
				</port>
			</output>
		</layer>
		<layer id="263" name="landmarks_fc_reye_y_new/WithoutBiases/fq_weights_1/minus_zp" type="Subtract" version="opset1">
			<data auto_broadcast="numpy"/>
			<input>
				<port id="0">
					<dim>60</dim>
					<dim>256</dim>
					<dim>1</dim>
					<dim>1</dim>
				</port>
				<port id="1">
					<dim>60</dim>
					<dim>1</dim>
					<dim>1</dim>
					<dim>1</dim>
				</port>
			</input>
			<output>
				<port id="2" precision="FP16">
					<dim>60</dim>
					<dim>256</dim>
					<dim>1</dim>
					<dim>1</dim>
				</port>
			</output>
		</layer>
		<layer id="264" name="landmarks_fc_reye_y_new/WithoutBiases/fq_weights_1/scale8982_const" type="Const" version="opset1">
			<data element_type="f16" offset="1843470" shape="60,1,1,1" size="120"/>
			<output>
				<port id="0" precision="FP16">
					<dim>60</dim>
					<dim>1</dim>
					<dim>1</dim>
					<dim>1</dim>
				</port>
			</output>
		</layer>
		<layer id="265" name="landmarks_fc_reye_y_new/WithoutBiases/fq_weights_1/mulpiply_by_scale" type="Multiply" version="opset1">
			<data auto_broadcast="numpy"/>
			<input>
				<port id="0">
					<dim>60</dim>
					<dim>256</dim>
					<dim>1</dim>
					<dim>1</dim>
				</port>
				<port id="1">
					<dim>60</dim>
					<dim>1</dim>
					<dim>1</dim>
					<dim>1</dim>
				</port>
			</input>
			<output>
				<port id="2" precision="FP16">
					<dim>60</dim>
					<dim>256</dim>
					<dim>1</dim>
					<dim>1</dim>
				</port>
			</output>
		</layer>
		<layer id="266" name="landmarks_fc_reye_y_new/WithoutBiases" type="Convolution" version="opset1">
			<data auto_pad="explicit" dilations="1,1" pads_begin="0,0" pads_end="0,0" strides="1,1"/>
			<input>
				<port id="0">
					<dim>1</dim>
					<dim>256</dim>
					<dim>1</dim>
					<dim>1</dim>
				</port>
				<port id="1">
					<dim>60</dim>
					<dim>256</dim>
					<dim>1</dim>
					<dim>1</dim>
				</port>
			</input>
			<output>
				<port id="2" precision="FP16">
					<dim>1</dim>
					<dim>60</dim>
					<dim>1</dim>
					<dim>1</dim>
				</port>
			</output>
		</layer>
		<layer id="267" name="landmarks_fc_reye_y_new/Dims45847747/EltwiseUnsqueeze7963_const549_const" type="Const" version="opset1">
			<data element_type="f16" offset="1843590" shape="1,60,1,1" size="120"/>
			<output>
				<port id="0" precision="FP16">
					<dim>1</dim>
					<dim>60</dim>
					<dim>1</dim>
					<dim>1</dim>
				</port>
			</output>
		</layer>
		<layer id="268" name="landmarks_fc_reye_y_new" type="Add" version="opset1">
			<data auto_broadcast="numpy"/>
			<input>
				<port id="0">
					<dim>1</dim>
					<dim>60</dim>
					<dim>1</dim>
					<dim>1</dim>
				</port>
				<port id="1">
					<dim>1</dim>
					<dim>60</dim>
					<dim>1</dim>
					<dim>1</dim>
				</port>
			</input>
			<output>
				<port id="2" names="landmarks_fc_reye_y_new" precision="FP16">
					<dim>1</dim>
					<dim>60</dim>
					<dim>1</dim>
					<dim>1</dim>
				</port>
			</output>
		</layer>
		<layer id="269" name="softmax_landmarks_reye_y" type="SoftMax" version="opset1">
			<data axis="1"/>
			<input>
				<port id="0">
					<dim>1</dim>
					<dim>60</dim>
					<dim>1</dim>
					<dim>1</dim>
				</port>
			</input>
			<output>
				<port id="1" names="softmax_landmarks_reye_y" precision="FP16">
					<dim>1</dim>
					<dim>60</dim>
					<dim>1</dim>
					<dim>1</dim>
				</port>
			</output>
		</layer>
		<layer id="270" name="46414645_const" type="Const" version="opset1">
			<data element_type="f16" offset="544" shape="" size="2"/>
			<output>
				<port id="0" precision="FP16"/>
			</output>
		</layer>
		<layer id="271" name="46424646_const" type="Const" version="opset1">
			<data element_type="f16" offset="1843710" shape="" size="2"/>
			<output>
				<port id="0" precision="FP16"/>
			</output>
		</layer>
		<layer id="272" name="46434647_const" type="Const" version="opset1">
			<data element_type="f16" offset="544" shape="" size="2"/>
			<output>
				<port id="0" precision="FP16"/>
			</output>
		</layer>
		<layer id="273" name="46444648_const" type="Const" version="opset1">
			<data element_type="f16" offset="1843710" shape="" size="2"/>
			<output>
				<port id="0" precision="FP16"/>
			</output>
		</layer>
		<layer id="274" name="raw_predicts/fq_input_5" type="FakeQuantize" version="opset1">
			<data auto_broadcast="numpy" levels="256"/>
			<input>
				<port id="0">
					<dim>1</dim>
					<dim>60</dim>
					<dim>1</dim>
					<dim>1</dim>
				</port>
				<port id="1"/>
				<port id="2"/>
				<port id="3"/>
				<port id="4"/>
			</input>
			<output>
				<port id="5" precision="FP16">
					<dim>1</dim>
					<dim>60</dim>
					<dim>1</dim>
					<dim>1</dim>
				</port>
			</output>
		</layer>
		<layer id="275" name="363/quantized7942_const" type="Const" version="opset1">
			<data element_type="i8" offset="1843712" shape="60,256,1,1" size="15360"/>
			<output>
				<port id="0" precision="I8">
					<dim>60</dim>
					<dim>256</dim>
					<dim>1</dim>
					<dim>1</dim>
				</port>
			</output>
		</layer>
		<layer id="276" name="363/quantized/to_f16" type="Convert" version="opset1">
			<data destination_type="f16"/>
			<input>
				<port id="0">
					<dim>60</dim>
					<dim>256</dim>
					<dim>1</dim>
					<dim>1</dim>
				</port>
			</input>
			<output>
				<port id="1" precision="FP16">
					<dim>60</dim>
					<dim>256</dim>
					<dim>1</dim>
					<dim>1</dim>
				</port>
			</output>
		</layer>
		<layer id="277" name="landmarks_fc_reye_corner_x_new/WithoutBiases/fq_weights_1/zero_point7955_const" type="Const" version="opset1">
			<data element_type="f16" offset="1859072" shape="60,1,1,1" size="120"/>
			<output>
				<port id="0" precision="FP16">
					<dim>60</dim>
					<dim>1</dim>
					<dim>1</dim>
					<dim>1</dim>
				</port>
			</output>
		</layer>
		<layer id="278" name="landmarks_fc_reye_corner_x_new/WithoutBiases/fq_weights_1/minus_zp" type="Subtract" version="opset1">
			<data auto_broadcast="numpy"/>
			<input>
				<port id="0">
					<dim>60</dim>
					<dim>256</dim>
					<dim>1</dim>
					<dim>1</dim>
				</port>
				<port id="1">
					<dim>60</dim>
					<dim>1</dim>
					<dim>1</dim>
					<dim>1</dim>
				</port>
			</input>
			<output>
				<port id="2" precision="FP16">
					<dim>60</dim>
					<dim>256</dim>
					<dim>1</dim>
					<dim>1</dim>
				</port>
			</output>
		</layer>
		<layer id="279" name="landmarks_fc_reye_corner_x_new/WithoutBiases/fq_weights_1/scale7950_const" type="Const" version="opset1">
			<data element_type="f16" offset="1859192" shape="60,1,1,1" size="120"/>
			<output>
				<port id="0" precision="FP16">
					<dim>60</dim>
					<dim>1</dim>
					<dim>1</dim>
					<dim>1</dim>
				</port>
			</output>
		</layer>
		<layer id="280" name="landmarks_fc_reye_corner_x_new/WithoutBiases/fq_weights_1/mulpiply_by_scale" type="Multiply" version="opset1">
			<data auto_broadcast="numpy"/>
			<input>
				<port id="0">
					<dim>60</dim>
					<dim>256</dim>
					<dim>1</dim>
					<dim>1</dim>
				</port>
				<port id="1">
					<dim>60</dim>
					<dim>1</dim>
					<dim>1</dim>
					<dim>1</dim>
				</port>
			</input>
			<output>
				<port id="2" precision="FP16">
					<dim>60</dim>
					<dim>256</dim>
					<dim>1</dim>
					<dim>1</dim>
				</port>
			</output>
		</layer>
		<layer id="281" name="landmarks_fc_reye_corner_x_new/WithoutBiases" type="Convolution" version="opset1">
			<data auto_pad="explicit" dilations="1,1" pads_begin="0,0" pads_end="0,0" strides="1,1"/>
			<input>
				<port id="0">
					<dim>1</dim>
					<dim>256</dim>
					<dim>1</dim>
					<dim>1</dim>
				</port>
				<port id="1">
					<dim>60</dim>
					<dim>256</dim>
					<dim>1</dim>
					<dim>1</dim>
				</port>
			</input>
			<output>
				<port id="2" precision="FP16">
					<dim>1</dim>
					<dim>60</dim>
					<dim>1</dim>
					<dim>1</dim>
				</port>
			</output>
		</layer>
		<layer id="282" name="landmarks_fc_reye_corner_x_new/Dims46987763/EltwiseUnsqueeze8027_const554_const" type="Const" version="opset1">
			<data element_type="f16" offset="1859312" shape="1,60,1,1" size="120"/>
			<output>
				<port id="0" precision="FP16">
					<dim>1</dim>
					<dim>60</dim>
					<dim>1</dim>
					<dim>1</dim>
				</port>
			</output>
		</layer>
		<layer id="283" name="landmarks_fc_reye_corner_x_new" type="Add" version="opset1">
			<data auto_broadcast="numpy"/>
			<input>
				<port id="0">
					<dim>1</dim>
					<dim>60</dim>
					<dim>1</dim>
					<dim>1</dim>
				</port>
				<port id="1">
					<dim>1</dim>
					<dim>60</dim>
					<dim>1</dim>
					<dim>1</dim>
				</port>
			</input>
			<output>
				<port id="2" names="landmarks_fc_reye_corner_x_new" precision="FP16">
					<dim>1</dim>
					<dim>60</dim>
					<dim>1</dim>
					<dim>1</dim>
				</port>
			</output>
		</layer>
		<layer id="284" name="softmax_landmarks_reye_corner_x" type="SoftMax" version="opset1">
			<data axis="1"/>
			<input>
				<port id="0">
					<dim>1</dim>
					<dim>60</dim>
					<dim>1</dim>
					<dim>1</dim>
				</port>
			</input>
			<output>
				<port id="1" names="softmax_landmarks_reye_corner_x" precision="FP16">
					<dim>1</dim>
					<dim>60</dim>
					<dim>1</dim>
					<dim>1</dim>
				</port>
			</output>
		</layer>
		<layer id="285" name="47514755_const" type="Const" version="opset1">
			<data element_type="f16" offset="544" shape="" size="2"/>
			<output>
				<port id="0" precision="FP16"/>
			</output>
		</layer>
		<layer id="286" name="47524756_const" type="Const" version="opset1">
			<data element_type="f16" offset="1859432" shape="" size="2"/>
			<output>
				<port id="0" precision="FP16"/>
			</output>
		</layer>
		<layer id="287" name="47534757_const" type="Const" version="opset1">
			<data element_type="f16" offset="544" shape="" size="2"/>
			<output>
				<port id="0" precision="FP16"/>
			</output>
		</layer>
		<layer id="288" name="47544758_const" type="Const" version="opset1">
			<data element_type="f16" offset="1859432" shape="" size="2"/>
			<output>
				<port id="0" precision="FP16"/>
			</output>
		</layer>
		<layer id="289" name="raw_predicts/fq_input_6" type="FakeQuantize" version="opset1">
			<data auto_broadcast="numpy" levels="256"/>
			<input>
				<port id="0">
					<dim>1</dim>
					<dim>60</dim>
					<dim>1</dim>
					<dim>1</dim>
				</port>
				<port id="1"/>
				<port id="2"/>
				<port id="3"/>
				<port id="4"/>
			</input>
			<output>
				<port id="5" precision="FP16">
					<dim>1</dim>
					<dim>60</dim>
					<dim>1</dim>
					<dim>1</dim>
				</port>
			</output>
		</layer>
		<layer id="290" name="287/quantized9598_const" type="Const" version="opset1">
			<data element_type="i8" offset="1859434" shape="60,256,1,1" size="15360"/>
			<output>
				<port id="0" precision="I8">
					<dim>60</dim>
					<dim>256</dim>
					<dim>1</dim>
					<dim>1</dim>
				</port>
			</output>
		</layer>
		<layer id="291" name="287/quantized/to_f16" type="Convert" version="opset1">
			<data destination_type="f16"/>
			<input>
				<port id="0">
					<dim>60</dim>
					<dim>256</dim>
					<dim>1</dim>
					<dim>1</dim>
				</port>
			</input>
			<output>
				<port id="1" precision="FP16">
					<dim>60</dim>
					<dim>256</dim>
					<dim>1</dim>
					<dim>1</dim>
				</port>
			</output>
		</layer>
		<layer id="292" name="landmarks_fc_reye_corner_y_new/WithoutBiases/fq_weights_1/zero_point9611_const" type="Const" version="opset1">
			<data element_type="f16" offset="1874794" shape="60,1,1,1" size="120"/>
			<output>
				<port id="0" precision="FP16">
					<dim>60</dim>
					<dim>1</dim>
					<dim>1</dim>
					<dim>1</dim>
				</port>
			</output>
		</layer>
		<layer id="293" name="landmarks_fc_reye_corner_y_new/WithoutBiases/fq_weights_1/minus_zp" type="Subtract" version="opset1">
			<data auto_broadcast="numpy"/>
			<input>
				<port id="0">
					<dim>60</dim>
					<dim>256</dim>
					<dim>1</dim>
					<dim>1</dim>
				</port>
				<port id="1">
					<dim>60</dim>
					<dim>1</dim>
					<dim>1</dim>
					<dim>1</dim>
				</port>
			</input>
			<output>
				<port id="2" precision="FP16">
					<dim>60</dim>
					<dim>256</dim>
					<dim>1</dim>
					<dim>1</dim>
				</port>
			</output>
		</layer>
		<layer id="294" name="landmarks_fc_reye_corner_y_new/WithoutBiases/fq_weights_1/scale9606_const" type="Const" version="opset1">
			<data element_type="f16" offset="1874914" shape="60,1,1,1" size="120"/>
			<output>
				<port id="0" precision="FP16">
					<dim>60</dim>
					<dim>1</dim>
					<dim>1</dim>
					<dim>1</dim>
				</port>
			</output>
		</layer>
		<layer id="295" name="landmarks_fc_reye_corner_y_new/WithoutBiases/fq_weights_1/mulpiply_by_scale" type="Multiply" version="opset1">
			<data auto_broadcast="numpy"/>
			<input>
				<port id="0">
					<dim>60</dim>
					<dim>256</dim>
					<dim>1</dim>
					<dim>1</dim>
				</port>
				<port id="1">
					<dim>60</dim>
					<dim>1</dim>
					<dim>1</dim>
					<dim>1</dim>
				</port>
			</input>
			<output>
				<port id="2" precision="FP16">
					<dim>60</dim>
					<dim>256</dim>
					<dim>1</dim>
					<dim>1</dim>
				</port>
			</output>
		</layer>
		<layer id="296" name="landmarks_fc_reye_corner_y_new/WithoutBiases" type="Convolution" version="opset1">
			<data auto_pad="explicit" dilations="1,1" pads_begin="0,0" pads_end="0,0" strides="1,1"/>
			<input>
				<port id="0">
					<dim>1</dim>
					<dim>256</dim>
					<dim>1</dim>
					<dim>1</dim>
				</port>
				<port id="1">
					<dim>60</dim>
					<dim>256</dim>
					<dim>1</dim>
					<dim>1</dim>
				</port>
			</input>
			<output>
				<port id="2" precision="FP16">
					<dim>1</dim>
					<dim>60</dim>
					<dim>1</dim>
					<dim>1</dim>
				</port>
			</output>
		</layer>
		<layer id="297" name="landmarks_fc_reye_corner_y_new/Dims43447714/EltwiseUnsqueeze7831_const559_const" type="Const" version="opset1">
			<data element_type="f16" offset="1875034" shape="1,60,1,1" size="120"/>
			<output>
				<port id="0" precision="FP16">
					<dim>1</dim>
					<dim>60</dim>
					<dim>1</dim>
					<dim>1</dim>
				</port>
			</output>
		</layer>
		<layer id="298" name="landmarks_fc_reye_corner_y_new" type="Add" version="opset1">
			<data auto_broadcast="numpy"/>
			<input>
				<port id="0">
					<dim>1</dim>
					<dim>60</dim>
					<dim>1</dim>
					<dim>1</dim>
				</port>
				<port id="1">
					<dim>1</dim>
					<dim>60</dim>
					<dim>1</dim>
					<dim>1</dim>
				</port>
			</input>
			<output>
				<port id="2" names="landmarks_fc_reye_corner_y_new" precision="FP16">
					<dim>1</dim>
					<dim>60</dim>
					<dim>1</dim>
					<dim>1</dim>
				</port>
			</output>
		</layer>
		<layer id="299" name="softmax_landmarks_reye_corner_y" type="SoftMax" version="opset1">
			<data axis="1"/>
			<input>
				<port id="0">
					<dim>1</dim>
					<dim>60</dim>
					<dim>1</dim>
					<dim>1</dim>
				</port>
			</input>
			<output>
				<port id="1" names="softmax_landmarks_reye_corner_y" precision="FP16">
					<dim>1</dim>
					<dim>60</dim>
					<dim>1</dim>
					<dim>1</dim>
				</port>
			</output>
		</layer>
		<layer id="300" name="48614865_const" type="Const" version="opset1">
			<data element_type="f16" offset="544" shape="" size="2"/>
			<output>
				<port id="0" precision="FP16"/>
			</output>
		</layer>
		<layer id="301" name="48624866_const" type="Const" version="opset1">
			<data element_type="f16" offset="1875154" shape="" size="2"/>
			<output>
				<port id="0" precision="FP16"/>
			</output>
		</layer>
		<layer id="302" name="48634867_const" type="Const" version="opset1">
			<data element_type="f16" offset="544" shape="" size="2"/>
			<output>
				<port id="0" precision="FP16"/>
			</output>
		</layer>
		<layer id="303" name="48644868_const" type="Const" version="opset1">
			<data element_type="f16" offset="1875154" shape="" size="2"/>
			<output>
				<port id="0" precision="FP16"/>
			</output>
		</layer>
		<layer id="304" name="raw_predicts/fq_input_7" type="FakeQuantize" version="opset1">
			<data auto_broadcast="numpy" levels="256"/>
			<input>
				<port id="0">
					<dim>1</dim>
					<dim>60</dim>
					<dim>1</dim>
					<dim>1</dim>
				</port>
				<port id="1"/>
				<port id="2"/>
				<port id="3"/>
				<port id="4"/>
			</input>
			<output>
				<port id="5" precision="FP16">
					<dim>1</dim>
					<dim>60</dim>
					<dim>1</dim>
					<dim>1</dim>
				</port>
			</output>
		</layer>
		<layer id="305" name="bn/landmarks_conv_lnose/mean/Fused_Mul_84808482_const5627022/quantized9502_const" type="Const" version="opset1">
			<data element_type="i8" offset="1875156" shape="256,512,1,1" size="131072"/>
			<output>
				<port id="0" precision="I8">
					<dim>256</dim>
					<dim>512</dim>
					<dim>1</dim>
					<dim>1</dim>
				</port>
			</output>
		</layer>
		<layer id="306" name="bn/landmarks_conv_lnose/mean/Fused_Mul_84808482_const5627022/quantized/to_f16" type="Convert" version="opset1">
			<data destination_type="f16"/>
			<input>
				<port id="0">
					<dim>256</dim>
					<dim>512</dim>
					<dim>1</dim>
					<dim>1</dim>
				</port>
			</input>
			<output>
				<port id="1" precision="FP16">
					<dim>256</dim>
					<dim>512</dim>
					<dim>1</dim>
					<dim>1</dim>
				</port>
			</output>
		</layer>
		<layer id="307" name="landmarks_conv_lnose/WithoutBiases/fq_weights_1/zero_point9515_const" type="Const" version="opset1">
			<data element_type="f16" offset="2006228" shape="256,1,1,1" size="512"/>
			<output>
				<port id="0" precision="FP16">
					<dim>256</dim>
					<dim>1</dim>
					<dim>1</dim>
					<dim>1</dim>
				</port>
			</output>
		</layer>
		<layer id="308" name="landmarks_conv_lnose/WithoutBiases/fq_weights_1/minus_zp" type="Subtract" version="opset1">
			<data auto_broadcast="numpy"/>
			<input>
				<port id="0">
					<dim>256</dim>
					<dim>512</dim>
					<dim>1</dim>
					<dim>1</dim>
				</port>
				<port id="1">
					<dim>256</dim>
					<dim>1</dim>
					<dim>1</dim>
					<dim>1</dim>
				</port>
			</input>
			<output>
				<port id="2" precision="FP16">
					<dim>256</dim>
					<dim>512</dim>
					<dim>1</dim>
					<dim>1</dim>
				</port>
			</output>
		</layer>
		<layer id="309" name="landmarks_conv_lnose/WithoutBiases/fq_weights_1/scale9510_const" type="Const" version="opset1">
			<data element_type="f16" offset="2006740" shape="256,1,1,1" size="512"/>
			<output>
				<port id="0" precision="FP16">
					<dim>256</dim>
					<dim>1</dim>
					<dim>1</dim>
					<dim>1</dim>
				</port>
			</output>
		</layer>
		<layer id="310" name="landmarks_conv_lnose/WithoutBiases/fq_weights_1/mulpiply_by_scale" type="Multiply" version="opset1">
			<data auto_broadcast="numpy"/>
			<input>
				<port id="0">
					<dim>256</dim>
					<dim>512</dim>
					<dim>1</dim>
					<dim>1</dim>
				</port>
				<port id="1">
					<dim>256</dim>
					<dim>1</dim>
					<dim>1</dim>
					<dim>1</dim>
				</port>
			</input>
			<output>
				<port id="2" precision="FP16">
					<dim>256</dim>
					<dim>512</dim>
					<dim>1</dim>
					<dim>1</dim>
				</port>
			</output>
		</layer>
		<layer id="311" name="landmarks_conv_lnose/WithoutBiases" type="Convolution" version="opset1">
			<data auto_pad="explicit" dilations="1,1" pads_begin="0,0" pads_end="0,0" strides="1,1"/>
			<input>
				<port id="0">
					<dim>1</dim>
					<dim>512</dim>
					<dim>1</dim>
					<dim>1</dim>
				</port>
				<port id="1">
					<dim>256</dim>
					<dim>512</dim>
					<dim>1</dim>
					<dim>1</dim>
				</port>
			</input>
			<output>
				<port id="2" precision="FP16">
					<dim>1</dim>
					<dim>256</dim>
					<dim>1</dim>
					<dim>1</dim>
				</port>
			</output>
		</layer>
		<layer id="312" name="data_add_758275877811/EltwiseUnsqueeze8211_const564_const" type="Const" version="opset1">
			<data element_type="f16" offset="2007252" shape="1,256,1,1" size="512"/>
			<output>
				<port id="0" precision="FP16">
					<dim>1</dim>
					<dim>256</dim>
					<dim>1</dim>
					<dim>1</dim>
				</port>
			</output>
		</layer>
		<layer id="313" name="landmarks_conv_lnose/Fused_Add_" type="Add" version="opset1">
			<data auto_broadcast="numpy"/>
			<input>
				<port id="0">
					<dim>1</dim>
					<dim>256</dim>
					<dim>1</dim>
					<dim>1</dim>
				</port>
				<port id="1">
					<dim>1</dim>
					<dim>256</dim>
					<dim>1</dim>
					<dim>1</dim>
				</port>
			</input>
			<output>
				<port id="2" names="landmarks_conv_lnose" precision="FP16">
					<dim>1</dim>
					<dim>256</dim>
					<dim>1</dim>
					<dim>1</dim>
				</port>
			</output>
		</layer>
		<layer id="314" name="relu_lnose" type="ReLU" version="opset1">
			<input>
				<port id="0">
					<dim>1</dim>
					<dim>256</dim>
					<dim>1</dim>
					<dim>1</dim>
				</port>
			</input>
			<output>
				<port id="1" names="landmarks_conv_lnose,landmarks_conv_lnose" precision="FP16">
					<dim>1</dim>
					<dim>256</dim>
					<dim>1</dim>
					<dim>1</dim>
				</port>
			</output>
		</layer>
		<layer id="315" name="29842988_const" type="Const" version="opset1">
			<data element_type="f16" offset="544" shape="" size="2"/>
			<output>
				<port id="0" precision="FP16"/>
			</output>
		</layer>
		<layer id="316" name="29852989_const" type="Const" version="opset1">
			<data element_type="f16" offset="2007764" shape="" size="2"/>
			<output>
				<port id="0" precision="FP16"/>
			</output>
		</layer>
		<layer id="317" name="29862990_const" type="Const" version="opset1">
			<data element_type="f16" offset="544" shape="" size="2"/>
			<output>
				<port id="0" precision="FP16"/>
			</output>
		</layer>
		<layer id="318" name="29872991_const" type="Const" version="opset1">
			<data element_type="f16" offset="2007764" shape="" size="2"/>
			<output>
				<port id="0" precision="FP16"/>
			</output>
		</layer>
		<layer id="319" name="landmarks_fc_lnose_x_new/WithoutBiases/fq_input_0" type="FakeQuantize" version="opset1">
			<data auto_broadcast="numpy" levels="256"/>
			<input>
				<port id="0">
					<dim>1</dim>
					<dim>256</dim>
					<dim>1</dim>
					<dim>1</dim>
				</port>
				<port id="1"/>
				<port id="2"/>
				<port id="3"/>
				<port id="4"/>
			</input>
			<output>
				<port id="5" precision="FP16">
					<dim>1</dim>
					<dim>256</dim>
					<dim>1</dim>
					<dim>1</dim>
				</port>
			</output>
		</layer>
		<layer id="320" name="217/quantized8878_const" type="Const" version="opset1">
			<data element_type="i8" offset="2007766" shape="60,256,1,1" size="15360"/>
			<output>
				<port id="0" precision="I8">
					<dim>60</dim>
					<dim>256</dim>
					<dim>1</dim>
					<dim>1</dim>
				</port>
			</output>
		</layer>
		<layer id="321" name="217/quantized/to_f16" type="Convert" version="opset1">
			<data destination_type="f16"/>
			<input>
				<port id="0">
					<dim>60</dim>
					<dim>256</dim>
					<dim>1</dim>
					<dim>1</dim>
				</port>
			</input>
			<output>
				<port id="1" precision="FP16">
					<dim>60</dim>
					<dim>256</dim>
					<dim>1</dim>
					<dim>1</dim>
				</port>
			</output>
		</layer>
		<layer id="322" name="landmarks_fc_nose_bottom_x_new/WithoutBiases/fq_weights_1/zero_point8891_const" type="Const" version="opset1">
			<data element_type="f16" offset="2023126" shape="60,1,1,1" size="120"/>
			<output>
				<port id="0" precision="FP16">
					<dim>60</dim>
					<dim>1</dim>
					<dim>1</dim>
					<dim>1</dim>
				</port>
			</output>
		</layer>
		<layer id="323" name="landmarks_fc_nose_bottom_x_new/WithoutBiases/fq_weights_1/minus_zp" type="Subtract" version="opset1">
			<data auto_broadcast="numpy"/>
			<input>
				<port id="0">
					<dim>60</dim>
					<dim>256</dim>
					<dim>1</dim>
					<dim>1</dim>
				</port>
				<port id="1">
					<dim>60</dim>
					<dim>1</dim>
					<dim>1</dim>
					<dim>1</dim>
				</port>
			</input>
			<output>
				<port id="2" precision="FP16">
					<dim>60</dim>
					<dim>256</dim>
					<dim>1</dim>
					<dim>1</dim>
				</port>
			</output>
		</layer>
		<layer id="324" name="landmarks_fc_nose_bottom_x_new/WithoutBiases/fq_weights_1/scale8886_const" type="Const" version="opset1">
			<data element_type="f16" offset="2023246" shape="60,1,1,1" size="120"/>
			<output>
				<port id="0" precision="FP16">
					<dim>60</dim>
					<dim>1</dim>
					<dim>1</dim>
					<dim>1</dim>
				</port>
			</output>
		</layer>
		<layer id="325" name="landmarks_fc_nose_bottom_x_new/WithoutBiases/fq_weights_1/mulpiply_by_scale" type="Multiply" version="opset1">
			<data auto_broadcast="numpy"/>
			<input>
				<port id="0">
					<dim>60</dim>
					<dim>256</dim>
					<dim>1</dim>
					<dim>1</dim>
				</port>
				<port id="1">
					<dim>60</dim>
					<dim>1</dim>
					<dim>1</dim>
					<dim>1</dim>
				</port>
			</input>
			<output>
				<port id="2" precision="FP16">
					<dim>60</dim>
					<dim>256</dim>
					<dim>1</dim>
					<dim>1</dim>
				</port>
			</output>
		</layer>
		<layer id="326" name="landmarks_fc_nose_bottom_x_new/WithoutBiases" type="Convolution" version="opset1">
			<data auto_pad="explicit" dilations="1,1" pads_begin="0,0" pads_end="0,0" strides="1,1"/>
			<input>
				<port id="0">
					<dim>1</dim>
					<dim>256</dim>
					<dim>1</dim>
					<dim>1</dim>
				</port>
				<port id="1">
					<dim>60</dim>
					<dim>256</dim>
					<dim>1</dim>
					<dim>1</dim>
				</port>
			</input>
			<output>
				<port id="2" precision="FP16">
					<dim>1</dim>
					<dim>60</dim>
					<dim>1</dim>
					<dim>1</dim>
				</port>
			</output>
		</layer>
		<layer id="327" name="landmarks_fc_nose_bottom_x_new/Dims45907748/EltwiseUnsqueeze7967_const569_const" type="Const" version="opset1">
			<data element_type="f16" offset="2023366" shape="1,60,1,1" size="120"/>
			<output>
				<port id="0" precision="FP16">
					<dim>1</dim>
					<dim>60</dim>
					<dim>1</dim>
					<dim>1</dim>
				</port>
			</output>
		</layer>
		<layer id="328" name="landmarks_fc_nose_bottom_x_new" type="Add" version="opset1">
			<data auto_broadcast="numpy"/>
			<input>
				<port id="0">
					<dim>1</dim>
					<dim>60</dim>
					<dim>1</dim>
					<dim>1</dim>
				</port>
				<port id="1">
					<dim>1</dim>
					<dim>60</dim>
					<dim>1</dim>
					<dim>1</dim>
				</port>
			</input>
			<output>
				<port id="2" names="landmarks_fc_nose_bottom_x_new" precision="FP16">
					<dim>1</dim>
					<dim>60</dim>
					<dim>1</dim>
					<dim>1</dim>
				</port>
			</output>
		</layer>
		<layer id="329" name="softmax_landmarks_nose_bottom_x" type="SoftMax" version="opset1">
			<data axis="1"/>
			<input>
				<port id="0">
					<dim>1</dim>
					<dim>60</dim>
					<dim>1</dim>
					<dim>1</dim>
				</port>
			</input>
			<output>
				<port id="1" names="softmax_landmarks_nose_bottom_x" precision="FP16">
					<dim>1</dim>
					<dim>60</dim>
					<dim>1</dim>
					<dim>1</dim>
				</port>
			</output>
		</layer>
		<layer id="330" name="48714875_const" type="Const" version="opset1">
			<data element_type="f16" offset="544" shape="" size="2"/>
			<output>
				<port id="0" precision="FP16"/>
			</output>
		</layer>
		<layer id="331" name="48724876_const" type="Const" version="opset1">
			<data element_type="f16" offset="2023486" shape="" size="2"/>
			<output>
				<port id="0" precision="FP16"/>
			</output>
		</layer>
		<layer id="332" name="48734877_const" type="Const" version="opset1">
			<data element_type="f16" offset="544" shape="" size="2"/>
			<output>
				<port id="0" precision="FP16"/>
			</output>
		</layer>
		<layer id="333" name="48744878_const" type="Const" version="opset1">
			<data element_type="f16" offset="2023486" shape="" size="2"/>
			<output>
				<port id="0" precision="FP16"/>
			</output>
		</layer>
		<layer id="334" name="raw_predicts/fq_input_8" type="FakeQuantize" version="opset1">
			<data auto_broadcast="numpy" levels="256"/>
			<input>
				<port id="0">
					<dim>1</dim>
					<dim>60</dim>
					<dim>1</dim>
					<dim>1</dim>
				</port>
				<port id="1"/>
				<port id="2"/>
				<port id="3"/>
				<port id="4"/>
			</input>
			<output>
				<port id="5" precision="FP16">
					<dim>1</dim>
					<dim>60</dim>
					<dim>1</dim>
					<dim>1</dim>
				</port>
			</output>
		</layer>
		<layer id="335" name="307/quantized8686_const" type="Const" version="opset1">
			<data element_type="i8" offset="2023488" shape="60,256,1,1" size="15360"/>
			<output>
				<port id="0" precision="I8">
					<dim>60</dim>
					<dim>256</dim>
					<dim>1</dim>
					<dim>1</dim>
				</port>
			</output>
		</layer>
		<layer id="336" name="307/quantized/to_f16" type="Convert" version="opset1">
			<data destination_type="f16"/>
			<input>
				<port id="0">
					<dim>60</dim>
					<dim>256</dim>
					<dim>1</dim>
					<dim>1</dim>
				</port>
			</input>
			<output>
				<port id="1" precision="FP16">
					<dim>60</dim>
					<dim>256</dim>
					<dim>1</dim>
					<dim>1</dim>
				</port>
			</output>
		</layer>
		<layer id="337" name="landmarks_fc_nose_bottom_y_new/WithoutBiases/fq_weights_1/zero_point8699_const" type="Const" version="opset1">
			<data element_type="f16" offset="2038848" shape="60,1,1,1" size="120"/>
			<output>
				<port id="0" precision="FP16">
					<dim>60</dim>
					<dim>1</dim>
					<dim>1</dim>
					<dim>1</dim>
				</port>
			</output>
		</layer>
		<layer id="338" name="landmarks_fc_nose_bottom_y_new/WithoutBiases/fq_weights_1/minus_zp" type="Subtract" version="opset1">
			<data auto_broadcast="numpy"/>
			<input>
				<port id="0">
					<dim>60</dim>
					<dim>256</dim>
					<dim>1</dim>
					<dim>1</dim>
				</port>
				<port id="1">
					<dim>60</dim>
					<dim>1</dim>
					<dim>1</dim>
					<dim>1</dim>
				</port>
			</input>
			<output>
				<port id="2" precision="FP16">
					<dim>60</dim>
					<dim>256</dim>
					<dim>1</dim>
					<dim>1</dim>
				</port>
			</output>
		</layer>
		<layer id="339" name="landmarks_fc_nose_bottom_y_new/WithoutBiases/fq_weights_1/scale8694_const" type="Const" version="opset1">
			<data element_type="f16" offset="2038968" shape="60,1,1,1" size="120"/>
			<output>
				<port id="0" precision="FP16">
					<dim>60</dim>
					<dim>1</dim>
					<dim>1</dim>
					<dim>1</dim>
				</port>
			</output>
		</layer>
		<layer id="340" name="landmarks_fc_nose_bottom_y_new/WithoutBiases/fq_weights_1/mulpiply_by_scale" type="Multiply" version="opset1">
			<data auto_broadcast="numpy"/>
			<input>
				<port id="0">
					<dim>60</dim>
					<dim>256</dim>
					<dim>1</dim>
					<dim>1</dim>
				</port>
				<port id="1">
					<dim>60</dim>
					<dim>1</dim>
					<dim>1</dim>
					<dim>1</dim>
				</port>
			</input>
			<output>
				<port id="2" precision="FP16">
					<dim>60</dim>
					<dim>256</dim>
					<dim>1</dim>
					<dim>1</dim>
				</port>
			</output>
		</layer>
		<layer id="341" name="landmarks_fc_nose_bottom_y_new/WithoutBiases" type="Convolution" version="opset1">
			<data auto_pad="explicit" dilations="1,1" pads_begin="0,0" pads_end="0,0" strides="1,1"/>
			<input>
				<port id="0">
					<dim>1</dim>
					<dim>256</dim>
					<dim>1</dim>
					<dim>1</dim>
				</port>
				<port id="1">
					<dim>60</dim>
					<dim>256</dim>
					<dim>1</dim>
					<dim>1</dim>
				</port>
			</input>
			<output>
				<port id="2" precision="FP16">
					<dim>1</dim>
					<dim>60</dim>
					<dim>1</dim>
					<dim>1</dim>
				</port>
			</output>
		</layer>
		<layer id="342" name="landmarks_fc_nose_bottom_y_new/Dims43567716/EltwiseUnsqueeze7839_const574_const" type="Const" version="opset1">
			<data element_type="f16" offset="2039088" shape="1,60,1,1" size="120"/>
			<output>
				<port id="0" precision="FP16">
					<dim>1</dim>
					<dim>60</dim>
					<dim>1</dim>
					<dim>1</dim>
				</port>
			</output>
		</layer>
		<layer id="343" name="landmarks_fc_nose_bottom_y_new" type="Add" version="opset1">
			<data auto_broadcast="numpy"/>
			<input>
				<port id="0">
					<dim>1</dim>
					<dim>60</dim>
					<dim>1</dim>
					<dim>1</dim>
				</port>
				<port id="1">
					<dim>1</dim>
					<dim>60</dim>
					<dim>1</dim>
					<dim>1</dim>
				</port>
			</input>
			<output>
				<port id="2" names="landmarks_fc_nose_bottom_y_new" precision="FP16">
					<dim>1</dim>
					<dim>60</dim>
					<dim>1</dim>
					<dim>1</dim>
				</port>
			</output>
		</layer>
		<layer id="344" name="softmax_landmarks_nose_bottom_y" type="SoftMax" version="opset1">
			<data axis="1"/>
			<input>
				<port id="0">
					<dim>1</dim>
					<dim>60</dim>
					<dim>1</dim>
					<dim>1</dim>
				</port>
			</input>
			<output>
				<port id="1" names="softmax_landmarks_nose_bottom_y" precision="FP16">
					<dim>1</dim>
					<dim>60</dim>
					<dim>1</dim>
					<dim>1</dim>
				</port>
			</output>
		</layer>
		<layer id="345" name="48814885_const" type="Const" version="opset1">
			<data element_type="f16" offset="544" shape="" size="2"/>
			<output>
				<port id="0" precision="FP16"/>
			</output>
		</layer>
		<layer id="346" name="48824886_const" type="Const" version="opset1">
			<data element_type="f16" offset="2039208" shape="" size="2"/>
			<output>
				<port id="0" precision="FP16"/>
			</output>
		</layer>
		<layer id="347" name="48834887_const" type="Const" version="opset1">
			<data element_type="f16" offset="544" shape="" size="2"/>
			<output>
				<port id="0" precision="FP16"/>
			</output>
		</layer>
		<layer id="348" name="48844888_const" type="Const" version="opset1">
			<data element_type="f16" offset="2039208" shape="" size="2"/>
			<output>
				<port id="0" precision="FP16"/>
			</output>
		</layer>
		<layer id="349" name="raw_predicts/fq_input_9" type="FakeQuantize" version="opset1">
			<data auto_broadcast="numpy" levels="256"/>
			<input>
				<port id="0">
					<dim>1</dim>
					<dim>60</dim>
					<dim>1</dim>
					<dim>1</dim>
				</port>
				<port id="1"/>
				<port id="2"/>
				<port id="3"/>
				<port id="4"/>
			</input>
			<output>
				<port id="5" precision="FP16">
					<dim>1</dim>
					<dim>60</dim>
					<dim>1</dim>
					<dim>1</dim>
				</port>
			</output>
		</layer>
		<layer id="350" name="373/quantized9862_const" type="Const" version="opset1">
			<data element_type="i8" offset="2039210" shape="60,256,1,1" size="15360"/>
			<output>
				<port id="0" precision="I8">
					<dim>60</dim>
					<dim>256</dim>
					<dim>1</dim>
					<dim>1</dim>
				</port>
			</output>
		</layer>
		<layer id="351" name="373/quantized/to_f16" type="Convert" version="opset1">
			<data destination_type="f16"/>
			<input>
				<port id="0">
					<dim>60</dim>
					<dim>256</dim>
					<dim>1</dim>
					<dim>1</dim>
				</port>
			</input>
			<output>
				<port id="1" precision="FP16">
					<dim>60</dim>
					<dim>256</dim>
					<dim>1</dim>
					<dim>1</dim>
				</port>
			</output>
		</layer>
		<layer id="352" name="landmarks_fc_nose_tip_x_new/WithoutBiases/fq_weights_1/zero_point9875_const" type="Const" version="opset1">
			<data element_type="f16" offset="2054570" shape="60,1,1,1" size="120"/>
			<output>
				<port id="0" precision="FP16">
					<dim>60</dim>
					<dim>1</dim>
					<dim>1</dim>
					<dim>1</dim>
				</port>
			</output>
		</layer>
		<layer id="353" name="landmarks_fc_nose_tip_x_new/WithoutBiases/fq_weights_1/minus_zp" type="Subtract" version="opset1">
			<data auto_broadcast="numpy"/>
			<input>
				<port id="0">
					<dim>60</dim>
					<dim>256</dim>
					<dim>1</dim>
					<dim>1</dim>
				</port>
				<port id="1">
					<dim>60</dim>
					<dim>1</dim>
					<dim>1</dim>
					<dim>1</dim>
				</port>
			</input>
			<output>
				<port id="2" precision="FP16">
					<dim>60</dim>
					<dim>256</dim>
					<dim>1</dim>
					<dim>1</dim>
				</port>
			</output>
		</layer>
		<layer id="354" name="landmarks_fc_nose_tip_x_new/WithoutBiases/fq_weights_1/scale9870_const" type="Const" version="opset1">
			<data element_type="f16" offset="2054690" shape="60,1,1,1" size="120"/>
			<output>
				<port id="0" precision="FP16">
					<dim>60</dim>
					<dim>1</dim>
					<dim>1</dim>
					<dim>1</dim>
				</port>
			</output>
		</layer>
		<layer id="355" name="landmarks_fc_nose_tip_x_new/WithoutBiases/fq_weights_1/mulpiply_by_scale" type="Multiply" version="opset1">
			<data auto_broadcast="numpy"/>
			<input>
				<port id="0">
					<dim>60</dim>
					<dim>256</dim>
					<dim>1</dim>
					<dim>1</dim>
				</port>
				<port id="1">
					<dim>60</dim>
					<dim>1</dim>
					<dim>1</dim>
					<dim>1</dim>
				</port>
			</input>
			<output>
				<port id="2" precision="FP16">
					<dim>60</dim>
					<dim>256</dim>
					<dim>1</dim>
					<dim>1</dim>
				</port>
			</output>
		</layer>
		<layer id="356" name="landmarks_fc_nose_tip_x_new/WithoutBiases" type="Convolution" version="opset1">
			<data auto_pad="explicit" dilations="1,1" pads_begin="0,0" pads_end="0,0" strides="1,1"/>
			<input>
				<port id="0">
					<dim>1</dim>
					<dim>256</dim>
					<dim>1</dim>
					<dim>1</dim>
				</port>
				<port id="1">
					<dim>60</dim>
					<dim>256</dim>
					<dim>1</dim>
					<dim>1</dim>
				</port>
			</input>
			<output>
				<port id="2" precision="FP16">
					<dim>1</dim>
					<dim>60</dim>
					<dim>1</dim>
					<dim>1</dim>
				</port>
			</output>
		</layer>
		<layer id="357" name="landmarks_fc_nose_tip_x_new/Dims44107725/EltwiseUnsqueeze7875_const579_const" type="Const" version="opset1">
			<data element_type="f16" offset="2054810" shape="1,60,1,1" size="120"/>
			<output>
				<port id="0" precision="FP16">
					<dim>1</dim>
					<dim>60</dim>
					<dim>1</dim>
					<dim>1</dim>
				</port>
			</output>
		</layer>
		<layer id="358" name="landmarks_fc_nose_tip_x_new" type="Add" version="opset1">
			<data auto_broadcast="numpy"/>
			<input>
				<port id="0">
					<dim>1</dim>
					<dim>60</dim>
					<dim>1</dim>
					<dim>1</dim>
				</port>
				<port id="1">
					<dim>1</dim>
					<dim>60</dim>
					<dim>1</dim>
					<dim>1</dim>
				</port>
			</input>
			<output>
				<port id="2" names="landmarks_fc_nose_tip_x_new" precision="FP16">
					<dim>1</dim>
					<dim>60</dim>
					<dim>1</dim>
					<dim>1</dim>
				</port>
			</output>
		</layer>
		<layer id="359" name="softmax_landmarks_nose_tip_x" type="SoftMax" version="opset1">
			<data axis="1"/>
			<input>
				<port id="0">
					<dim>1</dim>
					<dim>60</dim>
					<dim>1</dim>
					<dim>1</dim>
				</port>
			</input>
			<output>
				<port id="1" names="softmax_landmarks_nose_tip_x" precision="FP16">
					<dim>1</dim>
					<dim>60</dim>
					<dim>1</dim>
					<dim>1</dim>
				</port>
			</output>
		</layer>
		<layer id="360" name="42114215_const" type="Const" version="opset1">
			<data element_type="f16" offset="544" shape="" size="2"/>
			<output>
				<port id="0" precision="FP16"/>
			</output>
		</layer>
		<layer id="361" name="42124216_const" type="Const" version="opset1">
			<data element_type="f16" offset="2054930" shape="" size="2"/>
			<output>
				<port id="0" precision="FP16"/>
			</output>
		</layer>
		<layer id="362" name="42134217_const" type="Const" version="opset1">
			<data element_type="f16" offset="544" shape="" size="2"/>
			<output>
				<port id="0" precision="FP16"/>
			</output>
		</layer>
		<layer id="363" name="42144218_const" type="Const" version="opset1">
			<data element_type="f16" offset="2054930" shape="" size="2"/>
			<output>
				<port id="0" precision="FP16"/>
			</output>
		</layer>
		<layer id="364" name="raw_predicts/fq_input_10" type="FakeQuantize" version="opset1">
			<data auto_broadcast="numpy" levels="256"/>
			<input>
				<port id="0">
					<dim>1</dim>
					<dim>60</dim>
					<dim>1</dim>
					<dim>1</dim>
				</port>
				<port id="1"/>
				<port id="2"/>
				<port id="3"/>
				<port id="4"/>
			</input>
			<output>
				<port id="5" precision="FP16">
					<dim>1</dim>
					<dim>60</dim>
					<dim>1</dim>
					<dim>1</dim>
				</port>
			</output>
		</layer>
		<layer id="365" name="275/quantized8278_const" type="Const" version="opset1">
			<data element_type="i8" offset="2054932" shape="60,256,1,1" size="15360"/>
			<output>
				<port id="0" precision="I8">
					<dim>60</dim>
					<dim>256</dim>
					<dim>1</dim>
					<dim>1</dim>
				</port>
			</output>
		</layer>
		<layer id="366" name="275/quantized/to_f16" type="Convert" version="opset1">
			<data destination_type="f16"/>
			<input>
				<port id="0">
					<dim>60</dim>
					<dim>256</dim>
					<dim>1</dim>
					<dim>1</dim>
				</port>
			</input>
			<output>
				<port id="1" precision="FP16">
					<dim>60</dim>
					<dim>256</dim>
					<dim>1</dim>
					<dim>1</dim>
				</port>
			</output>
		</layer>
		<layer id="367" name="landmarks_fc_nose_tip_y_new/WithoutBiases/fq_weights_1/zero_point8291_const" type="Const" version="opset1">
			<data element_type="f16" offset="2070292" shape="60,1,1,1" size="120"/>
			<output>
				<port id="0" precision="FP16">
					<dim>60</dim>
					<dim>1</dim>
					<dim>1</dim>
					<dim>1</dim>
				</port>
			</output>
		</layer>
		<layer id="368" name="landmarks_fc_nose_tip_y_new/WithoutBiases/fq_weights_1/minus_zp" type="Subtract" version="opset1">
			<data auto_broadcast="numpy"/>
			<input>
				<port id="0">
					<dim>60</dim>
					<dim>256</dim>
					<dim>1</dim>
					<dim>1</dim>
				</port>
				<port id="1">
					<dim>60</dim>
					<dim>1</dim>
					<dim>1</dim>
					<dim>1</dim>
				</port>
			</input>
			<output>
				<port id="2" precision="FP16">
					<dim>60</dim>
					<dim>256</dim>
					<dim>1</dim>
					<dim>1</dim>
				</port>
			</output>
		</layer>
		<layer id="369" name="landmarks_fc_nose_tip_y_new/WithoutBiases/fq_weights_1/scale8286_const" type="Const" version="opset1">
			<data element_type="f16" offset="2070412" shape="60,1,1,1" size="120"/>
			<output>
				<port id="0" precision="FP16">
					<dim>60</dim>
					<dim>1</dim>
					<dim>1</dim>
					<dim>1</dim>
				</port>
			</output>
		</layer>
		<layer id="370" name="landmarks_fc_nose_tip_y_new/WithoutBiases/fq_weights_1/mulpiply_by_scale" type="Multiply" version="opset1">
			<data auto_broadcast="numpy"/>
			<input>
				<port id="0">
					<dim>60</dim>
					<dim>256</dim>
					<dim>1</dim>
					<dim>1</dim>
				</port>
				<port id="1">
					<dim>60</dim>
					<dim>1</dim>
					<dim>1</dim>
					<dim>1</dim>
				</port>
			</input>
			<output>
				<port id="2" precision="FP16">
					<dim>60</dim>
					<dim>256</dim>
					<dim>1</dim>
					<dim>1</dim>
				</port>
			</output>
		</layer>
		<layer id="371" name="landmarks_fc_nose_tip_y_new/WithoutBiases" type="Convolution" version="opset1">
			<data auto_pad="explicit" dilations="1,1" pads_begin="0,0" pads_end="0,0" strides="1,1"/>
			<input>
				<port id="0">
					<dim>1</dim>
					<dim>256</dim>
					<dim>1</dim>
					<dim>1</dim>
				</port>
				<port id="1">
					<dim>60</dim>
					<dim>256</dim>
					<dim>1</dim>
					<dim>1</dim>
				</port>
			</input>
			<output>
				<port id="2" precision="FP16">
					<dim>1</dim>
					<dim>60</dim>
					<dim>1</dim>
					<dim>1</dim>
				</port>
			</output>
		</layer>
		<layer id="372" name="landmarks_fc_nose_tip_y_new/Dims47767774/EltwiseUnsqueeze8071_const584_const" type="Const" version="opset1">
			<data element_type="f16" offset="2070532" shape="1,60,1,1" size="120"/>
			<output>
				<port id="0" precision="FP16">
					<dim>1</dim>
					<dim>60</dim>
					<dim>1</dim>
					<dim>1</dim>
				</port>
			</output>
		</layer>
		<layer id="373" name="landmarks_fc_nose_tip_y_new" type="Add" version="opset1">
			<data auto_broadcast="numpy"/>
			<input>
				<port id="0">
					<dim>1</dim>
					<dim>60</dim>
					<dim>1</dim>
					<dim>1</dim>
				</port>
				<port id="1">
					<dim>1</dim>
					<dim>60</dim>
					<dim>1</dim>
					<dim>1</dim>
				</port>
			</input>
			<output>
				<port id="2" names="landmarks_fc_nose_tip_y_new" precision="FP16">
					<dim>1</dim>
					<dim>60</dim>
					<dim>1</dim>
					<dim>1</dim>
				</port>
			</output>
		</layer>
		<layer id="374" name="softmax_landmarks_nose_tip_y" type="SoftMax" version="opset1">
			<data axis="1"/>
			<input>
				<port id="0">
					<dim>1</dim>
					<dim>60</dim>
					<dim>1</dim>
					<dim>1</dim>
				</port>
			</input>
			<output>
				<port id="1" names="softmax_landmarks_nose_tip_y" precision="FP16">
					<dim>1</dim>
					<dim>60</dim>
					<dim>1</dim>
					<dim>1</dim>
				</port>
			</output>
		</layer>
		<layer id="375" name="42214225_const" type="Const" version="opset1">
			<data element_type="f16" offset="544" shape="" size="2"/>
			<output>
				<port id="0" precision="FP16"/>
			</output>
		</layer>
		<layer id="376" name="42224226_const" type="Const" version="opset1">
			<data element_type="f16" offset="2070652" shape="" size="2"/>
			<output>
				<port id="0" precision="FP16"/>
			</output>
		</layer>
		<layer id="377" name="42234227_const" type="Const" version="opset1">
			<data element_type="f16" offset="544" shape="" size="2"/>
			<output>
				<port id="0" precision="FP16"/>
			</output>
		</layer>
		<layer id="378" name="42244228_const" type="Const" version="opset1">
			<data element_type="f16" offset="2070652" shape="" size="2"/>
			<output>
				<port id="0" precision="FP16"/>
			</output>
		</layer>
		<layer id="379" name="raw_predicts/fq_input_11" type="FakeQuantize" version="opset1">
			<data auto_broadcast="numpy" levels="256"/>
			<input>
				<port id="0">
					<dim>1</dim>
					<dim>60</dim>
					<dim>1</dim>
					<dim>1</dim>
				</port>
				<port id="1"/>
				<port id="2"/>
				<port id="3"/>
				<port id="4"/>
			</input>
			<output>
				<port id="5" precision="FP16">
					<dim>1</dim>
					<dim>60</dim>
					<dim>1</dim>
					<dim>1</dim>
				</port>
			</output>
		</layer>
		<layer id="380" name="233/quantized8014_const" type="Const" version="opset1">
			<data element_type="i8" offset="2070654" shape="60,256,1,1" size="15360"/>
			<output>
				<port id="0" precision="I8">
					<dim>60</dim>
					<dim>256</dim>
					<dim>1</dim>
					<dim>1</dim>
				</port>
			</output>
		</layer>
		<layer id="381" name="233/quantized/to_f16" type="Convert" version="opset1">
			<data destination_type="f16"/>
			<input>
				<port id="0">
					<dim>60</dim>
					<dim>256</dim>
					<dim>1</dim>
					<dim>1</dim>
				</port>
			</input>
			<output>
				<port id="1" precision="FP16">
					<dim>60</dim>
					<dim>256</dim>
					<dim>1</dim>
					<dim>1</dim>
				</port>
			</output>
		</layer>
		<layer id="382" name="landmarks_fc_lnose_x_new/WithoutBiases/fq_weights_1/zero_point8027_const" type="Const" version="opset1">
			<data element_type="f16" offset="2086014" shape="60,1,1,1" size="120"/>
			<output>
				<port id="0" precision="FP16">
					<dim>60</dim>
					<dim>1</dim>
					<dim>1</dim>
					<dim>1</dim>
				</port>
			</output>
		</layer>
		<layer id="383" name="landmarks_fc_lnose_x_new/WithoutBiases/fq_weights_1/minus_zp" type="Subtract" version="opset1">
			<data auto_broadcast="numpy"/>
			<input>
				<port id="0">
					<dim>60</dim>
					<dim>256</dim>
					<dim>1</dim>
					<dim>1</dim>
				</port>
				<port id="1">
					<dim>60</dim>
					<dim>1</dim>
					<dim>1</dim>
					<dim>1</dim>
				</port>
			</input>
			<output>
				<port id="2" precision="FP16">
					<dim>60</dim>
					<dim>256</dim>
					<dim>1</dim>
					<dim>1</dim>
				</port>
			</output>
		</layer>
		<layer id="384" name="landmarks_fc_lnose_x_new/WithoutBiases/fq_weights_1/scale8022_const" type="Const" version="opset1">
			<data element_type="f16" offset="2086134" shape="60,1,1,1" size="120"/>
			<output>
				<port id="0" precision="FP16">
					<dim>60</dim>
					<dim>1</dim>
					<dim>1</dim>
					<dim>1</dim>
				</port>
			</output>
		</layer>
		<layer id="385" name="landmarks_fc_lnose_x_new/WithoutBiases/fq_weights_1/mulpiply_by_scale" type="Multiply" version="opset1">
			<data auto_broadcast="numpy"/>
			<input>
				<port id="0">
					<dim>60</dim>
					<dim>256</dim>
					<dim>1</dim>
					<dim>1</dim>
				</port>
				<port id="1">
					<dim>60</dim>
					<dim>1</dim>
					<dim>1</dim>
					<dim>1</dim>
				</port>
			</input>
			<output>
				<port id="2" precision="FP16">
					<dim>60</dim>
					<dim>256</dim>
					<dim>1</dim>
					<dim>1</dim>
				</port>
			</output>
		</layer>
		<layer id="386" name="landmarks_fc_lnose_x_new/WithoutBiases" type="Convolution" version="opset1">
			<data auto_pad="explicit" dilations="1,1" pads_begin="0,0" pads_end="0,0" strides="1,1"/>
			<input>
				<port id="0">
					<dim>1</dim>
					<dim>256</dim>
					<dim>1</dim>
					<dim>1</dim>
				</port>
				<port id="1">
					<dim>60</dim>
					<dim>256</dim>
					<dim>1</dim>
					<dim>1</dim>
				</port>
			</input>
			<output>
				<port id="2" precision="FP16">
					<dim>1</dim>
					<dim>60</dim>
					<dim>1</dim>
					<dim>1</dim>
				</port>
			</output>
		</layer>
		<layer id="387" name="landmarks_fc_lnose_x_new/Dims46087751/EltwiseUnsqueeze7979_const589_const" type="Const" version="opset1">
			<data element_type="f16" offset="2086254" shape="1,60,1,1" size="120"/>
			<output>
				<port id="0" precision="FP16">
					<dim>1</dim>
					<dim>60</dim>
					<dim>1</dim>
					<dim>1</dim>
				</port>
			</output>
		</layer>
		<layer id="388" name="landmarks_fc_lnose_x_new" type="Add" version="opset1">
			<data auto_broadcast="numpy"/>
			<input>
				<port id="0">
					<dim>1</dim>
					<dim>60</dim>
					<dim>1</dim>
					<dim>1</dim>
				</port>
				<port id="1">
					<dim>1</dim>
					<dim>60</dim>
					<dim>1</dim>
					<dim>1</dim>
				</port>
			</input>
			<output>
				<port id="2" names="landmarks_fc_lnose_x_new" precision="FP16">
					<dim>1</dim>
					<dim>60</dim>
					<dim>1</dim>
					<dim>1</dim>
				</port>
			</output>
		</layer>
		<layer id="389" name="softmax_landmarks_lnose_x" type="SoftMax" version="opset1">
			<data axis="1"/>
			<input>
				<port id="0">
					<dim>1</dim>
					<dim>60</dim>
					<dim>1</dim>
					<dim>1</dim>
				</port>
			</input>
			<output>
				<port id="1" names="softmax_landmarks_lnose_x" precision="FP16">
					<dim>1</dim>
					<dim>60</dim>
					<dim>1</dim>
					<dim>1</dim>
				</port>
			</output>
		</layer>
		<layer id="390" name="42314235_const" type="Const" version="opset1">
			<data element_type="f16" offset="544" shape="" size="2"/>
			<output>
				<port id="0" precision="FP16"/>
			</output>
		</layer>
		<layer id="391" name="42324236_const" type="Const" version="opset1">
			<data element_type="f16" offset="2086374" shape="" size="2"/>
			<output>
				<port id="0" precision="FP16"/>
			</output>
		</layer>
		<layer id="392" name="42334237_const" type="Const" version="opset1">
			<data element_type="f16" offset="544" shape="" size="2"/>
			<output>
				<port id="0" precision="FP16"/>
			</output>
		</layer>
		<layer id="393" name="42344238_const" type="Const" version="opset1">
			<data element_type="f16" offset="2086374" shape="" size="2"/>
			<output>
				<port id="0" precision="FP16"/>
			</output>
		</layer>
		<layer id="394" name="raw_predicts/fq_input_12" type="FakeQuantize" version="opset1">
			<data auto_broadcast="numpy" levels="256"/>
			<input>
				<port id="0">
					<dim>1</dim>
					<dim>60</dim>
					<dim>1</dim>
					<dim>1</dim>
				</port>
				<port id="1"/>
				<port id="2"/>
				<port id="3"/>
				<port id="4"/>
			</input>
			<output>
				<port id="5" precision="FP16">
					<dim>1</dim>
					<dim>60</dim>
					<dim>1</dim>
					<dim>1</dim>
				</port>
			</output>
		</layer>
		<layer id="395" name="279/quantized8806_const" type="Const" version="opset1">
			<data element_type="i8" offset="2086376" shape="60,256,1,1" size="15360"/>
			<output>
				<port id="0" precision="I8">
					<dim>60</dim>
					<dim>256</dim>
					<dim>1</dim>
					<dim>1</dim>
				</port>
			</output>
		</layer>
…
		<edge from-layer="761" from-port="2" to-layer="763" to-port="0"/>
		<edge from-layer="762" from-port="0" to-layer="763" to-port="1"/>
		<edge from-layer="763" from-port="2" to-layer="764" to-port="0"/>
		<edge from-layer="764" from-port="1" to-layer="769" to-port="0"/>
		<edge from-layer="765" from-port="0" to-layer="769" to-port="1"/>
		<edge from-layer="766" from-port="0" to-layer="769" to-port="2"/>
		<edge from-layer="767" from-port="0" to-layer="769" to-port="3"/>
		<edge from-layer="768" from-port="0" to-layer="769" to-port="4"/>
		<edge from-layer="770" from-port="0" to-layer="771" to-port="0"/>
		<edge from-layer="771" from-port="1" to-layer="773" to-port="0"/>
		<edge from-layer="772" from-port="0" to-layer="773" to-port="1"/>
		<edge from-layer="773" from-port="2" to-layer="775" to-port="0"/>
		<edge from-layer="774" from-port="0" to-layer="775" to-port="1"/>
		<edge from-layer="694" from-port="5" to-layer="776" to-port="0"/>
		<edge from-layer="775" from-port="2" to-layer="776" to-port="1"/>
		<edge from-layer="776" from-port="2" to-layer="778" to-port="0"/>
		<edge from-layer="777" from-port="0" to-layer="778" to-port="1"/>
		<edge from-layer="778" from-port="2" to-layer="779" to-port="0"/>
		<edge from-layer="779" from-port="1" to-layer="784" to-port="0"/>
		<edge from-layer="780" from-port="0" to-layer="784" to-port="1"/>
		<edge from-layer="781" from-port="0" to-layer="784" to-port="2"/>
		<edge from-layer="782" from-port="0" to-layer="784" to-port="3"/>
		<edge from-layer="783" from-port="0" to-layer="784" to-port="4"/>
		<edge from-layer="785" from-port="0" to-layer="786" to-port="0"/>
		<edge from-layer="786" from-port="1" to-layer="788" to-port="0"/>
		<edge from-layer="787" from-port="0" to-layer="788" to-port="1"/>
		<edge from-layer="788" from-port="2" to-layer="790" to-port="0"/>
		<edge from-layer="789" from-port="0" to-layer="790" to-port="1"/>
		<edge from-layer="154" from-port="5" to-layer="791" to-port="0"/>
		<edge from-layer="790" from-port="2" to-layer="791" to-port="1"/>
		<edge from-layer="791" from-port="2" to-layer="793" to-port="0"/>
		<edge from-layer="792" from-port="0" to-layer="793" to-port="1"/>
		<edge from-layer="793" from-port="2" to-layer="794" to-port="0"/>
		<edge from-layer="794" from-port="1" to-layer="799" to-port="0"/>
		<edge from-layer="795" from-port="0" to-layer="799" to-port="1"/>
		<edge from-layer="796" from-port="0" to-layer="799" to-port="2"/>
		<edge from-layer="797" from-port="0" to-layer="799" to-port="3"/>
		<edge from-layer="798" from-port="0" to-layer="799" to-port="4"/>
		<edge from-layer="800" from-port="0" to-layer="801" to-port="0"/>
		<edge from-layer="801" from-port="1" to-layer="803" to-port="0"/>
		<edge from-layer="802" from-port="0" to-layer="803" to-port="1"/>
		<edge from-layer="803" from-port="2" to-layer="805" to-port="0"/>
		<edge from-layer="804" from-port="0" to-layer="805" to-port="1"/>
		<edge from-layer="799" from-port="5" to-layer="806" to-port="0"/>
		<edge from-layer="805" from-port="2" to-layer="806" to-port="1"/>
		<edge from-layer="806" from-port="2" to-layer="808" to-port="0"/>
		<edge from-layer="807" from-port="0" to-layer="808" to-port="1"/>
		<edge from-layer="808" from-port="2" to-layer="809" to-port="0"/>
		<edge from-layer="809" from-port="1" to-layer="814" to-port="0"/>
		<edge from-layer="810" from-port="0" to-layer="814" to-port="1"/>
		<edge from-layer="811" from-port="0" to-layer="814" to-port="2"/>
		<edge from-layer="812" from-port="0" to-layer="814" to-port="3"/>
		<edge from-layer="813" from-port="0" to-layer="814" to-port="4"/>
		<edge from-layer="815" from-port="0" to-layer="816" to-port="0"/>
		<edge from-layer="816" from-port="1" to-layer="818" to-port="0"/>
		<edge from-layer="817" from-port="0" to-layer="818" to-port="1"/>
		<edge from-layer="818" from-port="2" to-layer="820" to-port="0"/>
		<edge from-layer="819" from-port="0" to-layer="820" to-port="1"/>
		<edge from-layer="799" from-port="5" to-layer="821" to-port="0"/>
		<edge from-layer="820" from-port="2" to-layer="821" to-port="1"/>
		<edge from-layer="821" from-port="2" to-layer="823" to-port="0"/>
		<edge from-layer="822" from-port="0" to-layer="823" to-port="1"/>
		<edge from-layer="823" from-port="2" to-layer="824" to-port="0"/>
		<edge from-layer="824" from-port="1" to-layer="829" to-port="0"/>
		<edge from-layer="825" from-port="0" to-layer="829" to-port="1"/>
		<edge from-layer="826" from-port="0" to-layer="829" to-port="2"/>
		<edge from-layer="827" from-port="0" to-layer="829" to-port="3"/>
		<edge from-layer="828" from-port="0" to-layer="829" to-port="4"/>
		<edge from-layer="830" from-port="0" to-layer="831" to-port="0"/>
		<edge from-layer="831" from-port="1" to-layer="833" to-port="0"/>
		<edge from-layer="832" from-port="0" to-layer="833" to-port="1"/>
		<edge from-layer="833" from-port="2" to-layer="835" to-port="0"/>
		<edge from-layer="834" from-port="0" to-layer="835" to-port="1"/>
		<edge from-layer="799" from-port="5" to-layer="836" to-port="0"/>
		<edge from-layer="835" from-port="2" to-layer="836" to-port="1"/>
		<edge from-layer="836" from-port="2" to-layer="838" to-port="0"/>
		<edge from-layer="837" from-port="0" to-layer="838" to-port="1"/>
		<edge from-layer="838" from-port="2" to-layer="839" to-port="0"/>
		<edge from-layer="839" from-port="1" to-layer="844" to-port="0"/>
		<edge from-layer="840" from-port="0" to-layer="844" to-port="1"/>
		<edge from-layer="841" from-port="0" to-layer="844" to-port="2"/>
		<edge from-layer="842" from-port="0" to-layer="844" to-port="3"/>
		<edge from-layer="843" from-port="0" to-layer="844" to-port="4"/>
		<edge from-layer="845" from-port="0" to-layer="846" to-port="0"/>
		<edge from-layer="846" from-port="1" to-layer="848" to-port="0"/>
		<edge from-layer="847" from-port="0" to-layer="848" to-port="1"/>
		<edge from-layer="848" from-port="2" to-layer="850" to-port="0"/>
		<edge from-layer="849" from-port="0" to-layer="850" to-port="1"/>
		<edge from-layer="799" from-port="5" to-layer="851" to-port="0"/>
		<edge from-layer="850" from-port="2" to-layer="851" to-port="1"/>
		<edge from-layer="851" from-port="2" to-layer="853" to-port="0"/>
		<edge from-layer="852" from-port="0" to-layer="853" to-port="1"/>
		<edge from-layer="853" from-port="2" to-layer="854" to-port="0"/>
		<edge from-layer="854" from-port="1" to-layer="859" to-port="0"/>
		<edge from-layer="855" from-port="0" to-layer="859" to-port="1"/>
		<edge from-layer="856" from-port="0" to-layer="859" to-port="2"/>
		<edge from-layer="857" from-port="0" to-layer="859" to-port="3"/>
		<edge from-layer="858" from-port="0" to-layer="859" to-port="4"/>
		<edge from-layer="860" from-port="0" to-layer="861" to-port="0"/>
		<edge from-layer="861" from-port="1" to-layer="863" to-port="0"/>
		<edge from-layer="862" from-port="0" to-layer="863" to-port="1"/>
		<edge from-layer="863" from-port="2" to-layer="865" to-port="0"/>
		<edge from-layer="864" from-port="0" to-layer="865" to-port="1"/>
		<edge from-layer="799" from-port="5" to-layer="866" to-port="0"/>
		<edge from-layer="865" from-port="2" to-layer="866" to-port="1"/>
		<edge from-layer="866" from-port="2" to-layer="868" to-port="0"/>
		<edge from-layer="867" from-port="0" to-layer="868" to-port="1"/>
		<edge from-layer="868" from-port="2" to-layer="869" to-port="0"/>
		<edge from-layer="869" from-port="1" to-layer="874" to-port="0"/>
		<edge from-layer="870" from-port="0" to-layer="874" to-port="1"/>
		<edge from-layer="871" from-port="0" to-layer="874" to-port="2"/>
		<edge from-layer="872" from-port="0" to-layer="874" to-port="3"/>
		<edge from-layer="873" from-port="0" to-layer="874" to-port="4"/>
		<edge from-layer="875" from-port="0" to-layer="876" to-port="0"/>
		<edge from-layer="876" from-port="1" to-layer="878" to-port="0"/>
		<edge from-layer="877" from-port="0" to-layer="878" to-port="1"/>
		<edge from-layer="878" from-port="2" to-layer="880" to-port="0"/>
		<edge from-layer="879" from-port="0" to-layer="880" to-port="1"/>
		<edge from-layer="799" from-port="5" to-layer="881" to-port="0"/>
		<edge from-layer="880" from-port="2" to-layer="881" to-port="1"/>
		<edge from-layer="881" from-port="2" to-layer="883" to-port="0"/>
		<edge from-layer="882" from-port="0" to-layer="883" to-port="1"/>
		<edge from-layer="883" from-port="2" to-layer="884" to-port="0"/>
		<edge from-layer="884" from-port="1" to-layer="889" to-port="0"/>
		<edge from-layer="885" from-port="0" to-layer="889" to-port="1"/>
		<edge from-layer="886" from-port="0" to-layer="889" to-port="2"/>
		<edge from-layer="887" from-port="0" to-layer="889" to-port="3"/>
		<edge from-layer="888" from-port="0" to-layer="889" to-port="4"/>
		<edge from-layer="890" from-port="0" to-layer="891" to-port="0"/>
		<edge from-layer="891" from-port="1" to-layer="893" to-port="0"/>
		<edge from-layer="892" from-port="0" to-layer="893" to-port="1"/>
		<edge from-layer="893" from-port="2" to-layer="895" to-port="0"/>
		<edge from-layer="894" from-port="0" to-layer="895" to-port="1"/>
		<edge from-layer="799" from-port="5" to-layer="896" to-port="0"/>
		<edge from-layer="895" from-port="2" to-layer="896" to-port="1"/>
		<edge from-layer="896" from-port="2" to-layer="898" to-port="0"/>
		<edge from-layer="897" from-port="0" to-layer="898" to-port="1"/>
		<edge from-layer="898" from-port="2" to-layer="899" to-port="0"/>
		<edge from-layer="899" from-port="1" to-layer="904" to-port="0"/>
		<edge from-layer="900" from-port="0" to-layer="904" to-port="1"/>
		<edge from-layer="901" from-port="0" to-layer="904" to-port="2"/>
		<edge from-layer="902" from-port="0" to-layer="904" to-port="3"/>
		<edge from-layer="903" from-port="0" to-layer="904" to-port="4"/>
		<edge from-layer="905" from-port="0" to-layer="906" to-port="0"/>
		<edge from-layer="906" from-port="1" to-layer="908" to-port="0"/>
		<edge from-layer="907" from-port="0" to-layer="908" to-port="1"/>
		<edge from-layer="908" from-port="2" to-layer="910" to-port="0"/>
		<edge from-layer="909" from-port="0" to-layer="910" to-port="1"/>
		<edge from-layer="799" from-port="5" to-layer="911" to-port="0"/>
		<edge from-layer="910" from-port="2" to-layer="911" to-port="1"/>
		<edge from-layer="911" from-port="2" to-layer="913" to-port="0"/>
		<edge from-layer="912" from-port="0" to-layer="913" to-port="1"/>
		<edge from-layer="913" from-port="2" to-layer="914" to-port="0"/>
		<edge from-layer="914" from-port="1" to-layer="919" to-port="0"/>
		<edge from-layer="915" from-port="0" to-layer="919" to-port="1"/>
		<edge from-layer="916" from-port="0" to-layer="919" to-port="2"/>
		<edge from-layer="917" from-port="0" to-layer="919" to-port="3"/>
		<edge from-layer="918" from-port="0" to-layer="919" to-port="4"/>
		<edge from-layer="920" from-port="0" to-layer="921" to-port="0"/>
		<edge from-layer="921" from-port="1" to-layer="923" to-port="0"/>
		<edge from-layer="922" from-port="0" to-layer="923" to-port="1"/>
		<edge from-layer="923" from-port="2" to-layer="925" to-port="0"/>
		<edge from-layer="924" from-port="0" to-layer="925" to-port="1"/>
		<edge from-layer="799" from-port="5" to-layer="926" to-port="0"/>
		<edge from-layer="925" from-port="2" to-layer="926" to-port="1"/>
		<edge from-layer="926" from-port="2" to-layer="928" to-port="0"/>
		<edge from-layer="927" from-port="0" to-layer="928" to-port="1"/>
		<edge from-layer="928" from-port="2" to-layer="929" to-port="0"/>
		<edge from-layer="929" from-port="1" to-layer="934" to-port="0"/>
		<edge from-layer="930" from-port="0" to-layer="934" to-port="1"/>
		<edge from-layer="931" from-port="0" to-layer="934" to-port="2"/>
		<edge from-layer="932" from-port="0" to-layer="934" to-port="3"/>
		<edge from-layer="933" from-port="0" to-layer="934" to-port="4"/>
		<edge from-layer="935" from-port="0" to-layer="936" to-port="0"/>
		<edge from-layer="936" from-port="1" to-layer="938" to-port="0"/>
		<edge from-layer="937" from-port="0" to-layer="938" to-port="1"/>
		<edge from-layer="938" from-port="2" to-layer="940" to-port="0"/>
		<edge from-layer="939" from-port="0" to-layer="940" to-port="1"/>
		<edge from-layer="799" from-port="5" to-layer="941" to-port="0"/>
		<edge from-layer="940" from-port="2" to-layer="941" to-port="1"/>
		<edge from-layer="941" from-port="2" to-layer="943" to-port="0"/>
		<edge from-layer="942" from-port="0" to-layer="943" to-port="1"/>
		<edge from-layer="943" from-port="2" to-layer="944" to-port="0"/>
		<edge from-layer="944" from-port="1" to-layer="949" to-port="0"/>
		<edge from-layer="945" from-port="0" to-layer="949" to-port="1"/>
		<edge from-layer="946" from-port="0" to-layer="949" to-port="2"/>
		<edge from-layer="947" from-port="0" to-layer="949" to-port="3"/>
		<edge from-layer="948" from-port="0" to-layer="949" to-port="4"/>
		<edge from-layer="950" from-port="0" to-layer="951" to-port="0"/>
		<edge from-layer="951" from-port="1" to-layer="953" to-port="0"/>
		<edge from-layer="952" from-port="0" to-layer="953" to-port="1"/>
		<edge from-layer="953" from-port="2" to-layer="955" to-port="0"/>
		<edge from-layer="954" from-port="0" to-layer="955" to-port="1"/>
		<edge from-layer="799" from-port="5" to-layer="956" to-port="0"/>
		<edge from-layer="955" from-port="2" to-layer="956" to-port="1"/>
		<edge from-layer="956" from-port="2" to-layer="958" to-port="0"/>
		<edge from-layer="957" from-port="0" to-layer="958" to-port="1"/>
		<edge from-layer="958" from-port="2" to-layer="959" to-port="0"/>
		<edge from-layer="959" from-port="1" to-layer="964" to-port="0"/>
		<edge from-layer="960" from-port="0" to-layer="964" to-port="1"/>
		<edge from-layer="961" from-port="0" to-layer="964" to-port="2"/>
		<edge from-layer="962" from-port="0" to-layer="964" to-port="3"/>
		<edge from-layer="963" from-port="0" to-layer="964" to-port="4"/>
		<edge from-layer="965" from-port="0" to-layer="966" to-port="0"/>
		<edge from-layer="966" from-port="1" to-layer="968" to-port="0"/>
		<edge from-layer="967" from-port="0" to-layer="968" to-port="1"/>
		<edge from-layer="968" from-port="2" to-layer="970" to-port="0"/>
		<edge from-layer="969" from-port="0" to-layer="970" to-port="1"/>
		<edge from-layer="799" from-port="5" to-layer="971" to-port="0"/>
		<edge from-layer="970" from-port="2" to-layer="971" to-port="1"/>
		<edge from-layer="971" from-port="2" to-layer="973" to-port="0"/>
		<edge from-layer="972" from-port="0" to-layer="973" to-port="1"/>
		<edge from-layer="973" from-port="2" to-layer="974" to-port="0"/>
		<edge from-layer="974" from-port="1" to-layer="979" to-port="0"/>
		<edge from-layer="975" from-port="0" to-layer="979" to-port="1"/>
		<edge from-layer="976" from-port="0" to-layer="979" to-port="2"/>
		<edge from-layer="977" from-port="0" to-layer="979" to-port="3"/>
		<edge from-layer="978" from-port="0" to-layer="979" to-port="4"/>
		<edge from-layer="980" from-port="0" to-layer="981" to-port="0"/>
		<edge from-layer="981" from-port="1" to-layer="983" to-port="0"/>
		<edge from-layer="982" from-port="0" to-layer="983" to-port="1"/>
		<edge from-layer="983" from-port="2" to-layer="985" to-port="0"/>
		<edge from-layer="984" from-port="0" to-layer="985" to-port="1"/>
		<edge from-layer="799" from-port="5" to-layer="986" to-port="0"/>
		<edge from-layer="985" from-port="2" to-layer="986" to-port="1"/>
		<edge from-layer="986" from-port="2" to-layer="988" to-port="0"/>
		<edge from-layer="987" from-port="0" to-layer="988" to-port="1"/>
		<edge from-layer="988" from-port="2" to-layer="989" to-port="0"/>
		<edge from-layer="989" from-port="1" to-layer="994" to-port="0"/>
		<edge from-layer="990" from-port="0" to-layer="994" to-port="1"/>
		<edge from-layer="991" from-port="0" to-layer="994" to-port="2"/>
		<edge from-layer="992" from-port="0" to-layer="994" to-port="3"/>
		<edge from-layer="993" from-port="0" to-layer="994" to-port="4"/>
		<edge from-layer="995" from-port="0" to-layer="996" to-port="0"/>
		<edge from-layer="996" from-port="1" to-layer="998" to-port="0"/>
		<edge from-layer="997" from-port="0" to-layer="998" to-port="1"/>
		<edge from-layer="998" from-port="2" to-layer="1000" to-port="0"/>
		<edge from-layer="999" from-port="0" to-layer="1000" to-port="1"/>
		<edge from-layer="799" from-port="5" to-layer="1001" to-port="0"/>
		<edge from-layer="1000" from-port="2" to-layer="1001" to-port="1"/>
		<edge from-layer="1001" from-port="2" to-layer="1003" to-port="0"/>
		<edge from-layer="1002" from-port="0" to-layer="1003" to-port="1"/>
		<edge from-layer="1003" from-port="2" to-layer="1004" to-port="0"/>
		<edge from-layer="1004" from-port="1" to-layer="1009" to-port="0"/>
		<edge from-layer="1005" from-port="0" to-layer="1009" to-port="1"/>
		<edge from-layer="1006" from-port="0" to-layer="1009" to-port="2"/>
		<edge from-layer="1007" from-port="0" to-layer="1009" to-port="3"/>
		<edge from-layer="1008" from-port="0" to-layer="1009" to-port="4"/>
		<edge from-layer="1010" from-port="0" to-layer="1011" to-port="0"/>
		<edge from-layer="1011" from-port="1" to-layer="1013" to-port="0"/>
		<edge from-layer="1012" from-port="0" to-layer="1013" to-port="1"/>
		<edge from-layer="1013" from-port="2" to-layer="1015" to-port="0"/>
		<edge from-layer="1014" from-port="0" to-layer="1015" to-port="1"/>
		<edge from-layer="799" from-port="5" to-layer="1016" to-port="0"/>
		<edge from-layer="1015" from-port="2" to-layer="1016" to-port="1"/>
		<edge from-layer="1016" from-port="2" to-layer="1018" to-port="0"/>
		<edge from-layer="1017" from-port="0" to-layer="1018" to-port="1"/>
		<edge from-layer="1018" from-port="2" to-layer="1019" to-port="0"/>
		<edge from-layer="1019" from-port="1" to-layer="1024" to-port="0"/>
		<edge from-layer="1020" from-port="0" to-layer="1024" to-port="1"/>
		<edge from-layer="1021" from-port="0" to-layer="1024" to-port="2"/>
		<edge from-layer="1022" from-port="0" to-layer="1024" to-port="3"/>
		<edge from-layer="1023" from-port="0" to-layer="1024" to-port="4"/>
		<edge from-layer="1025" from-port="0" to-layer="1026" to-port="0"/>
		<edge from-layer="1026" from-port="1" to-layer="1028" to-port="0"/>
		<edge from-layer="1027" from-port="0" to-layer="1028" to-port="1"/>
		<edge from-layer="1028" from-port="2" to-layer="1030" to-port="0"/>
		<edge from-layer="1029" from-port="0" to-layer="1030" to-port="1"/>
		<edge from-layer="799" from-port="5" to-layer="1031" to-port="0"/>
		<edge from-layer="1030" from-port="2" to-layer="1031" to-port="1"/>
		<edge from-layer="1031" from-port="2" to-layer="1033" to-port="0"/>
		<edge from-layer="1032" from-port="0" to-layer="1033" to-port="1"/>
		<edge from-layer="1033" from-port="2" to-layer="1034" to-port="0"/>
		<edge from-layer="1034" from-port="1" to-layer="1039" to-port="0"/>
		<edge from-layer="1035" from-port="0" to-layer="1039" to-port="1"/>
		<edge from-layer="1036" from-port="0" to-layer="1039" to-port="2"/>
		<edge from-layer="1037" from-port="0" to-layer="1039" to-port="3"/>
		<edge from-layer="1038" from-port="0" to-layer="1039" to-port="4"/>
		<edge from-layer="1040" from-port="0" to-layer="1041" to-port="0"/>
		<edge from-layer="1041" from-port="1" to-layer="1043" to-port="0"/>
		<edge from-layer="1042" from-port="0" to-layer="1043" to-port="1"/>
		<edge from-layer="1043" from-port="2" to-layer="1045" to-port="0"/>
		<edge from-layer="1044" from-port="0" to-layer="1045" to-port="1"/>
		<edge from-layer="799" from-port="5" to-layer="1046" to-port="0"/>
		<edge from-layer="1045" from-port="2" to-layer="1046" to-port="1"/>
		<edge from-layer="1046" from-port="2" to-layer="1048" to-port="0"/>
		<edge from-layer="1047" from-port="0" to-layer="1048" to-port="1"/>
		<edge from-layer="1048" from-port="2" to-layer="1049" to-port="0"/>
		<edge from-layer="1049" from-port="1" to-layer="1054" to-port="0"/>
		<edge from-layer="1050" from-port="0" to-layer="1054" to-port="1"/>
		<edge from-layer="1051" from-port="0" to-layer="1054" to-port="2"/>
		<edge from-layer="1052" from-port="0" to-layer="1054" to-port="3"/>
		<edge from-layer="1053" from-port="0" to-layer="1054" to-port="4"/>
		<edge from-layer="1055" from-port="0" to-layer="1056" to-port="0"/>
		<edge from-layer="1056" from-port="1" to-layer="1058" to-port="0"/>
		<edge from-layer="1057" from-port="0" to-layer="1058" to-port="1"/>
		<edge from-layer="1058" from-port="2" to-layer="1060" to-port="0"/>
		<edge from-layer="1059" from-port="0" to-layer="1060" to-port="1"/>
		<edge from-layer="799" from-port="5" to-layer="1061" to-port="0"/>
		<edge from-layer="1060" from-port="2" to-layer="1061" to-port="1"/>
		<edge from-layer="1061" from-port="2" to-layer="1063" to-port="0"/>
		<edge from-layer="1062" from-port="0" to-layer="1063" to-port="1"/>
		<edge from-layer="1063" from-port="2" to-layer="1064" to-port="0"/>
		<edge from-layer="1064" from-port="1" to-layer="1069" to-port="0"/>
		<edge from-layer="1065" from-port="0" to-layer="1069" to-port="1"/>
		<edge from-layer="1066" from-port="0" to-layer="1069" to-port="2"/>
		<edge from-layer="1067" from-port="0" to-layer="1069" to-port="3"/>
		<edge from-layer="1068" from-port="0" to-layer="1069" to-port="4"/>
		<edge from-layer="1070" from-port="0" to-layer="1071" to-port="0"/>
		<edge from-layer="1071" from-port="1" to-layer="1073" to-port="0"/>
		<edge from-layer="1072" from-port="0" to-layer="1073" to-port="1"/>
		<edge from-layer="1073" from-port="2" to-layer="1075" to-port="0"/>
		<edge from-layer="1074" from-port="0" to-layer="1075" to-port="1"/>
		<edge from-layer="799" from-port="5" to-layer="1076" to-port="0"/>
		<edge from-layer="1075" from-port="2" to-layer="1076" to-port="1"/>
		<edge from-layer="1076" from-port="2" to-layer="1078" to-port="0"/>
		<edge from-layer="1077" from-port="0" to-layer="1078" to-port="1"/>
		<edge from-layer="1078" from-port="2" to-layer="1079" to-port="0"/>
		<edge from-layer="1079" from-port="1" to-layer="1084" to-port="0"/>
		<edge from-layer="1080" from-port="0" to-layer="1084" to-port="1"/>
		<edge from-layer="1081" from-port="0" to-layer="1084" to-port="2"/>
		<edge from-layer="1082" from-port="0" to-layer="1084" to-port="3"/>
		<edge from-layer="1083" from-port="0" to-layer="1084" to-port="4"/>
		<edge from-layer="1085" from-port="0" to-layer="1086" to-port="0"/>
		<edge from-layer="1086" from-port="1" to-layer="1088" to-port="0"/>
		<edge from-layer="1087" from-port="0" to-layer="1088" to-port="1"/>
		<edge from-layer="1088" from-port="2" to-layer="1090" to-port="0"/>
		<edge from-layer="1089" from-port="0" to-layer="1090" to-port="1"/>
		<edge from-layer="799" from-port="5" to-layer="1091" to-port="0"/>
		<edge from-layer="1090" from-port="2" to-layer="1091" to-port="1"/>
		<edge from-layer="1091" from-port="2" to-layer="1093" to-port="0"/>
		<edge from-layer="1092" from-port="0" to-layer="1093" to-port="1"/>
		<edge from-layer="1093" from-port="2" to-layer="1094" to-port="0"/>
		<edge from-layer="1094" from-port="1" to-layer="1099" to-port="0"/>
		<edge from-layer="1095" from-port="0" to-layer="1099" to-port="1"/>
		<edge from-layer="1096" from-port="0" to-layer="1099" to-port="2"/>
		<edge from-layer="1097" from-port="0" to-layer="1099" to-port="3"/>
		<edge from-layer="1098" from-port="0" to-layer="1099" to-port="4"/>
		<edge from-layer="1100" from-port="0" to-layer="1101" to-port="0"/>
		<edge from-layer="1101" from-port="1" to-layer="1103" to-port="0"/>
		<edge from-layer="1102" from-port="0" to-layer="1103" to-port="1"/>
		<edge from-layer="1103" from-port="2" to-layer="1105" to-port="0"/>
		<edge from-layer="1104" from-port="0" to-layer="1105" to-port="1"/>
		<edge from-layer="799" from-port="5" to-layer="1106" to-port="0"/>
		<edge from-layer="1105" from-port="2" to-layer="1106" to-port="1"/>
		<edge from-layer="1106" from-port="2" to-layer="1108" to-port="0"/>
		<edge from-layer="1107" from-port="0" to-layer="1108" to-port="1"/>
		<edge from-layer="1108" from-port="2" to-layer="1109" to-port="0"/>
		<edge from-layer="1109" from-port="1" to-layer="1114" to-port="0"/>
		<edge from-layer="1110" from-port="0" to-layer="1114" to-port="1"/>
		<edge from-layer="1111" from-port="0" to-layer="1114" to-port="2"/>
		<edge from-layer="1112" from-port="0" to-layer="1114" to-port="3"/>
		<edge from-layer="1113" from-port="0" to-layer="1114" to-port="4"/>
		<edge from-layer="1115" from-port="0" to-layer="1116" to-port="0"/>
		<edge from-layer="1116" from-port="1" to-layer="1118" to-port="0"/>
		<edge from-layer="1117" from-port="0" to-layer="1118" to-port="1"/>
		<edge from-layer="1118" from-port="2" to-layer="1120" to-port="0"/>
		<edge from-layer="1119" from-port="0" to-layer="1120" to-port="1"/>
		<edge from-layer="799" from-port="5" to-layer="1121" to-port="0"/>
		<edge from-layer="1120" from-port="2" to-layer="1121" to-port="1"/>
		<edge from-layer="1121" from-port="2" to-layer="1123" to-port="0"/>
		<edge from-layer="1122" from-port="0" to-layer="1123" to-port="1"/>
		<edge from-layer="1123" from-port="2" to-layer="1124" to-port="0"/>
		<edge from-layer="1124" from-port="1" to-layer="1129" to-port="0"/>
		<edge from-layer="1125" from-port="0" to-layer="1129" to-port="1"/>
		<edge from-layer="1126" from-port="0" to-layer="1129" to-port="2"/>
		<edge from-layer="1127" from-port="0" to-layer="1129" to-port="3"/>
		<edge from-layer="1128" from-port="0" to-layer="1129" to-port="4"/>
		<edge from-layer="1130" from-port="0" to-layer="1131" to-port="0"/>
		<edge from-layer="1131" from-port="1" to-layer="1133" to-port="0"/>
		<edge from-layer="1132" from-port="0" to-layer="1133" to-port="1"/>
		<edge from-layer="1133" from-port="2" to-layer="1135" to-port="0"/>
		<edge from-layer="1134" from-port="0" to-layer="1135" to-port="1"/>
		<edge from-layer="799" from-port="5" to-layer="1136" to-port="0"/>
		<edge from-layer="1135" from-port="2" to-layer="1136" to-port="1"/>
		<edge from-layer="1136" from-port="2" to-layer="1138" to-port="0"/>
		<edge from-layer="1137" from-port="0" to-layer="1138" to-port="1"/>
		<edge from-layer="1138" from-port="2" to-layer="1139" to-port="0"/>
		<edge from-layer="1139" from-port="1" to-layer="1144" to-port="0"/>
		<edge from-layer="1140" from-port="0" to-layer="1144" to-port="1"/>
		<edge from-layer="1141" from-port="0" to-layer="1144" to-port="2"/>
		<edge from-layer="1142" from-port="0" to-layer="1144" to-port="3"/>
		<edge from-layer="1143" from-port="0" to-layer="1144" to-port="4"/>
		<edge from-layer="1145" from-port="0" to-layer="1146" to-port="0"/>
		<edge from-layer="1146" from-port="1" to-layer="1148" to-port="0"/>
		<edge from-layer="1147" from-port="0" to-layer="1148" to-port="1"/>
		<edge from-layer="1148" from-port="2" to-layer="1150" to-port="0"/>
		<edge from-layer="1149" from-port="0" to-layer="1150" to-port="1"/>
		<edge from-layer="799" from-port="5" to-layer="1151" to-port="0"/>
		<edge from-layer="1150" from-port="2" to-layer="1151" to-port="1"/>
		<edge from-layer="1151" from-port="2" to-layer="1153" to-port="0"/>
		<edge from-layer="1152" from-port="0" to-layer="1153" to-port="1"/>
		<edge from-layer="1153" from-port="2" to-layer="1154" to-port="0"/>
		<edge from-layer="1154" from-port="1" to-layer="1159" to-port="0"/>
		<edge from-layer="1155" from-port="0" to-layer="1159" to-port="1"/>
		<edge from-layer="1156" from-port="0" to-layer="1159" to-port="2"/>
		<edge from-layer="1157" from-port="0" to-layer="1159" to-port="3"/>
		<edge from-layer="1158" from-port="0" to-layer="1159" to-port="4"/>
		<edge from-layer="1160" from-port="0" to-layer="1161" to-port="0"/>
		<edge from-layer="1161" from-port="1" to-layer="1163" to-port="0"/>
		<edge from-layer="1162" from-port="0" to-layer="1163" to-port="1"/>
		<edge from-layer="1163" from-port="2" to-layer="1165" to-port="0"/>
		<edge from-layer="1164" from-port="0" to-layer="1165" to-port="1"/>
		<edge from-layer="799" from-port="5" to-layer="1166" to-port="0"/>
		<edge from-layer="1165" from-port="2" to-layer="1166" to-port="1"/>
		<edge from-layer="1166" from-port="2" to-layer="1168" to-port="0"/>
		<edge from-layer="1167" from-port="0" to-layer="1168" to-port="1"/>
		<edge from-layer="1168" from-port="2" to-layer="1169" to-port="0"/>
		<edge from-layer="1169" from-port="1" to-layer="1174" to-port="0"/>
		<edge from-layer="1170" from-port="0" to-layer="1174" to-port="1"/>
		<edge from-layer="1171" from-port="0" to-layer="1174" to-port="2"/>
		<edge from-layer="1172" from-port="0" to-layer="1174" to-port="3"/>
		<edge from-layer="1173" from-port="0" to-layer="1174" to-port="4"/>
		<edge from-layer="1175" from-port="0" to-layer="1176" to-port="0"/>
		<edge from-layer="1176" from-port="1" to-layer="1178" to-port="0"/>
		<edge from-layer="1177" from-port="0" to-layer="1178" to-port="1"/>
		<edge from-layer="1178" from-port="2" to-layer="1180" to-port="0"/>
		<edge from-layer="1179" from-port="0" to-layer="1180" to-port="1"/>
		<edge from-layer="799" from-port="5" to-layer="1181" to-port="0"/>
		<edge from-layer="1180" from-port="2" to-layer="1181" to-port="1"/>
		<edge from-layer="1181" from-port="2" to-layer="1183" to-port="0"/>
		<edge from-layer="1182" from-port="0" to-layer="1183" to-port="1"/>
		<edge from-layer="1183" from-port="2" to-layer="1184" to-port="0"/>
		<edge from-layer="1184" from-port="1" to-layer="1189" to-port="0"/>
		<edge from-layer="1185" from-port="0" to-layer="1189" to-port="1"/>
		<edge from-layer="1186" from-port="0" to-layer="1189" to-port="2"/>
		<edge from-layer="1187" from-port="0" to-layer="1189" to-port="3"/>
		<edge from-layer="1188" from-port="0" to-layer="1189" to-port="4"/>
		<edge from-layer="1190" from-port="0" to-layer="1191" to-port="0"/>
		<edge from-layer="1191" from-port="1" to-layer="1193" to-port="0"/>
		<edge from-layer="1192" from-port="0" to-layer="1193" to-port="1"/>
		<edge from-layer="1193" from-port="2" to-layer="1195" to-port="0"/>
		<edge from-layer="1194" from-port="0" to-layer="1195" to-port="1"/>
		<edge from-layer="799" from-port="5" to-layer="1196" to-port="0"/>
		<edge from-layer="1195" from-port="2" to-layer="1196" to-port="1"/>
		<edge from-layer="1196" from-port="2" to-layer="1198" to-port="0"/>
		<edge from-layer="1197" from-port="0" to-layer="1198" to-port="1"/>
		<edge from-layer="1198" from-port="2" to-layer="1199" to-port="0"/>
		<edge from-layer="1199" from-port="1" to-layer="1204" to-port="0"/>
		<edge from-layer="1200" from-port="0" to-layer="1204" to-port="1"/>
		<edge from-layer="1201" from-port="0" to-layer="1204" to-port="2"/>
		<edge from-layer="1202" from-port="0" to-layer="1204" to-port="3"/>
		<edge from-layer="1203" from-port="0" to-layer="1204" to-port="4"/>
		<edge from-layer="1205" from-port="0" to-layer="1206" to-port="0"/>
		<edge from-layer="1206" from-port="1" to-layer="1208" to-port="0"/>
		<edge from-layer="1207" from-port="0" to-layer="1208" to-port="1"/>
		<edge from-layer="1208" from-port="2" to-layer="1210" to-port="0"/>
		<edge from-layer="1209" from-port="0" to-layer="1210" to-port="1"/>
		<edge from-layer="799" from-port="5" to-layer="1211" to-port="0"/>
		<edge from-layer="1210" from-port="2" to-layer="1211" to-port="1"/>
		<edge from-layer="1211" from-port="2" to-layer="1213" to-port="0"/>
		<edge from-layer="1212" from-port="0" to-layer="1213" to-port="1"/>
		<edge from-layer="1213" from-port="2" to-layer="1214" to-port="0"/>
		<edge from-layer="1214" from-port="1" to-layer="1219" to-port="0"/>
		<edge from-layer="1215" from-port="0" to-layer="1219" to-port="1"/>
		<edge from-layer="1216" from-port="0" to-layer="1219" to-port="2"/>
		<edge from-layer="1217" from-port="0" to-layer="1219" to-port="3"/>
		<edge from-layer="1218" from-port="0" to-layer="1219" to-port="4"/>
		<edge from-layer="1220" from-port="0" to-layer="1221" to-port="0"/>
		<edge from-layer="1221" from-port="1" to-layer="1223" to-port="0"/>
		<edge from-layer="1222" from-port="0" to-layer="1223" to-port="1"/>
		<edge from-layer="1223" from-port="2" to-layer="1225" to-port="0"/>
		<edge from-layer="1224" from-port="0" to-layer="1225" to-port="1"/>
		<edge from-layer="799" from-port="5" to-layer="1226" to-port="0"/>
		<edge from-layer="1225" from-port="2" to-layer="1226" to-port="1"/>
		<edge from-layer="1226" from-port="2" to-layer="1228" to-port="0"/>
		<edge from-layer="1227" from-port="0" to-layer="1228" to-port="1"/>
		<edge from-layer="1228" from-port="2" to-layer="1229" to-port="0"/>
		<edge from-layer="1229" from-port="1" to-layer="1234" to-port="0"/>
		<edge from-layer="1230" from-port="0" to-layer="1234" to-port="1"/>
		<edge from-layer="1231" from-port="0" to-layer="1234" to-port="2"/>
		<edge from-layer="1232" from-port="0" to-layer="1234" to-port="3"/>
		<edge from-layer="1233" from-port="0" to-layer="1234" to-port="4"/>
		<edge from-layer="1235" from-port="0" to-layer="1236" to-port="0"/>
		<edge from-layer="1236" from-port="1" to-layer="1238" to-port="0"/>
		<edge from-layer="1237" from-port="0" to-layer="1238" to-port="1"/>
		<edge from-layer="1238" from-port="2" to-layer="1240" to-port="0"/>
		<edge from-layer="1239" from-port="0" to-layer="1240" to-port="1"/>
		<edge from-layer="799" from-port="5" to-layer="1241" to-port="0"/>
		<edge from-layer="1240" from-port="2" to-layer="1241" to-port="1"/>
		<edge from-layer="1241" from-port="2" to-layer="1243" to-port="0"/>
		<edge from-layer="1242" from-port="0" to-layer="1243" to-port="1"/>
		<edge from-layer="1243" from-port="2" to-layer="1244" to-port="0"/>
		<edge from-layer="1244" from-port="1" to-layer="1249" to-port="0"/>
		<edge from-layer="1245" from-port="0" to-layer="1249" to-port="1"/>
		<edge from-layer="1246" from-port="0" to-layer="1249" to-port="2"/>
		<edge from-layer="1247" from-port="0" to-layer="1249" to-port="3"/>
		<edge from-layer="1248" from-port="0" to-layer="1249" to-port="4"/>
		<edge from-layer="1250" from-port="0" to-layer="1251" to-port="0"/>
		<edge from-layer="1251" from-port="1" to-layer="1253" to-port="0"/>
		<edge from-layer="1252" from-port="0" to-layer="1253" to-port="1"/>
		<edge from-layer="1253" from-port="2" to-layer="1255" to-port="0"/>
		<edge from-layer="1254" from-port="0" to-layer="1255" to-port="1"/>
		<edge from-layer="799" from-port="5" to-layer="1256" to-port="0"/>
		<edge from-layer="1255" from-port="2" to-layer="1256" to-port="1"/>
		<edge from-layer="1256" from-port="2" to-layer="1258" to-port="0"/>
		<edge from-layer="1257" from-port="0" to-layer="1258" to-port="1"/>
		<edge from-layer="1258" from-port="2" to-layer="1259" to-port="0"/>
		<edge from-layer="1259" from-port="1" to-layer="1264" to-port="0"/>
		<edge from-layer="1260" from-port="0" to-layer="1264" to-port="1"/>
		<edge from-layer="1261" from-port="0" to-layer="1264" to-port="2"/>
		<edge from-layer="1262" from-port="0" to-layer="1264" to-port="3"/>
		<edge from-layer="1263" from-port="0" to-layer="1264" to-port="4"/>
		<edge from-layer="1265" from-port="0" to-layer="1266" to-port="0"/>
		<edge from-layer="1266" from-port="1" to-layer="1268" to-port="0"/>
		<edge from-layer="1267" from-port="0" to-layer="1268" to-port="1"/>
		<edge from-layer="1268" from-port="2" to-layer="1270" to-port="0"/>
		<edge from-layer="1269" from-port="0" to-layer="1270" to-port="1"/>
		<edge from-layer="799" from-port="5" to-layer="1271" to-port="0"/>
		<edge from-layer="1270" from-port="2" to-layer="1271" to-port="1"/>
		<edge from-layer="1271" from-port="2" to-layer="1273" to-port="0"/>
		<edge from-layer="1272" from-port="0" to-layer="1273" to-port="1"/>
		<edge from-layer="1273" from-port="2" to-layer="1274" to-port="0"/>
		<edge from-layer="1274" from-port="1" to-layer="1279" to-port="0"/>
		<edge from-layer="1275" from-port="0" to-layer="1279" to-port="1"/>
		<edge from-layer="1276" from-port="0" to-layer="1279" to-port="2"/>
		<edge from-layer="1277" from-port="0" to-layer="1279" to-port="3"/>
		<edge from-layer="1278" from-port="0" to-layer="1279" to-port="4"/>
		<edge from-layer="1280" from-port="0" to-layer="1281" to-port="0"/>
		<edge from-layer="1281" from-port="1" to-layer="1283" to-port="0"/>
		<edge from-layer="1282" from-port="0" to-layer="1283" to-port="1"/>
		<edge from-layer="1283" from-port="2" to-layer="1285" to-port="0"/>
		<edge from-layer="1284" from-port="0" to-layer="1285" to-port="1"/>
		<edge from-layer="799" from-port="5" to-layer="1286" to-port="0"/>
		<edge from-layer="1285" from-port="2" to-layer="1286" to-port="1"/>
		<edge from-layer="1286" from-port="2" to-layer="1288" to-port="0"/>
		<edge from-layer="1287" from-port="0" to-layer="1288" to-port="1"/>
		<edge from-layer="1288" from-port="2" to-layer="1289" to-port="0"/>
		<edge from-layer="1289" from-port="1" to-layer="1294" to-port="0"/>
		<edge from-layer="1290" from-port="0" to-layer="1294" to-port="1"/>
		<edge from-layer="1291" from-port="0" to-layer="1294" to-port="2"/>
		<edge from-layer="1292" from-port="0" to-layer="1294" to-port="3"/>
		<edge from-layer="1293" from-port="0" to-layer="1294" to-port="4"/>
		<edge from-layer="1295" from-port="0" to-layer="1296" to-port="0"/>
		<edge from-layer="1296" from-port="1" to-layer="1298" to-port="0"/>
		<edge from-layer="1297" from-port="0" to-layer="1298" to-port="1"/>
		<edge from-layer="1298" from-port="2" to-layer="1300" to-port="0"/>
		<edge from-layer="1299" from-port="0" to-layer="1300" to-port="1"/>
		<edge from-layer="799" from-port="5" to-layer="1301" to-port="0"/>
		<edge from-layer="1300" from-port="2" to-layer="1301" to-port="1"/>
		<edge from-layer="1301" from-port="2" to-layer="1303" to-port="0"/>
		<edge from-layer="1302" from-port="0" to-layer="1303" to-port="1"/>
		<edge from-layer="1303" from-port="2" to-layer="1304" to-port="0"/>
		<edge from-layer="1304" from-port="1" to-layer="1309" to-port="0"/>
		<edge from-layer="1305" from-port="0" to-layer="1309" to-port="1"/>
		<edge from-layer="1306" from-port="0" to-layer="1309" to-port="2"/>
		<edge from-layer="1307" from-port="0" to-layer="1309" to-port="3"/>
		<edge from-layer="1308" from-port="0" to-layer="1309" to-port="4"/>
		<edge from-layer="184" from-port="5" to-layer="1310" to-port="0"/>
		<edge from-layer="199" from-port="5" to-layer="1310" to-port="1"/>
		<edge from-layer="214" from-port="5" to-layer="1310" to-port="2"/>
		<edge from-layer="229" from-port="5" to-layer="1310" to-port="3"/>
		<edge from-layer="259" from-port="5" to-layer="1310" to-port="4"/>
		<edge from-layer="274" from-port="5" to-layer="1310" to-port="5"/>
		<edge from-layer="289" from-port="5" to-layer="1310" to-port="6"/>
		<edge from-layer="304" from-port="5" to-layer="1310" to-port="7"/>
		<edge from-layer="334" from-port="5" to-layer="1310" to-port="8"/>
		<edge from-layer="349" from-port="5" to-layer="1310" to-port="9"/>
		<edge from-layer="364" from-port="5" to-layer="1310" to-port="10"/>
		<edge from-layer="379" from-port="5" to-layer="1310" to-port="11"/>
		<edge from-layer="394" from-port="5" to-layer="1310" to-port="12"/>
		<edge from-layer="409" from-port="5" to-layer="1310" to-port="13"/>
		<edge from-layer="424" from-port="5" to-layer="1310" to-port="14"/>
		<edge from-layer="439" from-port="5" to-layer="1310" to-port="15"/>
		<edge from-layer="469" from-port="5" to-layer="1310" to-port="16"/>
		<edge from-layer="484" from-port="5" to-layer="1310" to-port="17"/>
		<edge from-layer="499" from-port="5" to-layer="1310" to-port="18"/>
		<edge from-layer="514" from-port="5" to-layer="1310" to-port="19"/>
		<edge from-layer="529" from-port="5" to-layer="1310" to-port="20"/>
		<edge from-layer="544" from-port="5" to-layer="1310" to-port="21"/>
		<edge from-layer="559" from-port="5" to-layer="1310" to-port="22"/>
		<edge from-layer="574" from-port="5" to-layer="1310" to-port="23"/>
		<edge from-layer="604" from-port="5" to-layer="1310" to-port="24"/>
		<edge from-layer="619" from-port="5" to-layer="1310" to-port="25"/>
		<edge from-layer="634" from-port="5" to-layer="1310" to-port="26"/>
		<edge from-layer="649" from-port="5" to-layer="1310" to-port="27"/>
		<edge from-layer="664" from-port="5" to-layer="1310" to-port="28"/>
		<edge from-layer="679" from-port="5" to-layer="1310" to-port="29"/>
		<edge from-layer="709" from-port="5" to-layer="1310" to-port="30"/>
		<edge from-layer="724" from-port="5" to-layer="1310" to-port="31"/>
		<edge from-layer="739" from-port="5" to-layer="1310" to-port="32"/>
		<edge from-layer="754" from-port="5" to-layer="1310" to-port="33"/>
		<edge from-layer="769" from-port="5" to-layer="1310" to-port="34"/>
		<edge from-layer="784" from-port="5" to-layer="1310" to-port="35"/>
		<edge from-layer="814" from-port="5" to-layer="1310" to-port="36"/>
		<edge from-layer="829" from-port="5" to-layer="1310" to-port="37"/>
		<edge from-layer="844" from-port="5" to-layer="1310" to-port="38"/>
		<edge from-layer="859" from-port="5" to-layer="1310" to-port="39"/>
		<edge from-layer="874" from-port="5" to-layer="1310" to-port="40"/>
		<edge from-layer="889" from-port="5" to-layer="1310" to-port="41"/>
		<edge from-layer="904" from-port="5" to-layer="1310" to-port="42"/>
		<edge from-layer="919" from-port="5" to-layer="1310" to-port="43"/>
		<edge from-layer="934" from-port="5" to-layer="1310" to-port="44"/>
		<edge from-layer="949" from-port="5" to-layer="1310" to-port="45"/>
		<edge from-layer="964" from-port="5" to-layer="1310" to-port="46"/>
		<edge from-layer="979" from-port="5" to-layer="1310" to-port="47"/>
		<edge from-layer="994" from-port="5" to-layer="1310" to-port="48"/>
		<edge from-layer="1009" from-port="5" to-layer="1310" to-port="49"/>
		<edge from-layer="1024" from-port="5" to-layer="1310" to-port="50"/>
		<edge from-layer="1039" from-port="5" to-layer="1310" to-port="51"/>
		<edge from-layer="1054" from-port="5" to-layer="1310" to-port="52"/>
		<edge from-layer="1069" from-port="5" to-layer="1310" to-port="53"/>
		<edge from-layer="1084" from-port="5" to-layer="1310" to-port="54"/>
		<edge from-layer="1099" from-port="5" to-layer="1310" to-port="55"/>
		<edge from-layer="1114" from-port="5" to-layer="1310" to-port="56"/>
		<edge from-layer="1129" from-port="5" to-layer="1310" to-port="57"/>
		<edge from-layer="1144" from-port="5" to-layer="1310" to-port="58"/>
		<edge from-layer="1159" from-port="5" to-layer="1310" to-port="59"/>
		<edge from-layer="1174" from-port="5" to-layer="1310" to-port="60"/>
		<edge from-layer="1189" from-port="5" to-layer="1310" to-port="61"/>
		<edge from-layer="1204" from-port="5" to-layer="1310" to-port="62"/>
		<edge from-layer="1219" from-port="5" to-layer="1310" to-port="63"/>
		<edge from-layer="1234" from-port="5" to-layer="1310" to-port="64"/>
		<edge from-layer="1249" from-port="5" to-layer="1310" to-port="65"/>
		<edge from-layer="1264" from-port="5" to-layer="1310" to-port="66"/>
		<edge from-layer="1279" from-port="5" to-layer="1310" to-port="67"/>
		<edge from-layer="1294" from-port="5" to-layer="1310" to-port="68"/>
		<edge from-layer="1309" from-port="5" to-layer="1310" to-port="69"/>
		<edge from-layer="1311" from-port="0" to-layer="1312" to-port="0"/>
		<edge from-layer="1312" from-port="1" to-layer="1314" to-port="0"/>
		<edge from-layer="1313" from-port="0" to-layer="1314" to-port="1"/>
		<edge from-layer="1314" from-port="2" to-layer="1316" to-port="0"/>
		<edge from-layer="1315" from-port="0" to-layer="1316" to-port="1"/>
		<edge from-layer="1310" from-port="70" to-layer="1317" to-port="0"/>
		<edge from-layer="1316" from-port="2" to-layer="1317" to-port="1"/>
		<edge from-layer="1317" from-port="2" to-layer="1319" to-port="0"/>
		<edge from-layer="1318" from-port="0" to-layer="1319" to-port="1"/>
		<edge from-layer="1319" from-port="2" to-layer="1320" to-port="0"/>
		<edge from-layer="1320" from-port="1" to-layer="1322" to-port="0"/>
		<edge from-layer="1321" from-port="0" to-layer="1322" to-port="1"/>
		<edge from-layer="1322" from-port="2" to-layer="1324" to-port="0"/>
		<edge from-layer="1323" from-port="0" to-layer="1324" to-port="1"/>
		<edge from-layer="1324" from-port="2" to-layer="1329" to-port="0"/>
		<edge from-layer="1325" from-port="0" to-layer="1329" to-port="1"/>
		<edge from-layer="1326" from-port="0" to-layer="1329" to-port="2"/>
		<edge from-layer="1327" from-port="0" to-layer="1329" to-port="3"/>
		<edge from-layer="1328" from-port="0" to-layer="1329" to-port="4"/>
		<edge from-layer="1330" from-port="0" to-layer="1331" to-port="0"/>
		<edge from-layer="1331" from-port="1" to-layer="1333" to-port="0"/>
		<edge from-layer="1332" from-port="0" to-layer="1333" to-port="1"/>
		<edge from-layer="1333" from-port="2" to-layer="1335" to-port="0"/>
		<edge from-layer="1334" from-port="0" to-layer="1335" to-port="1"/>
		<edge from-layer="1329" from-port="5" to-layer="1336" to-port="0"/>
		<edge from-layer="1335" from-port="2" to-layer="1336" to-port="1"/>
		<edge from-layer="1336" from-port="2" to-layer="1338" to-port="0"/>
		<edge from-layer="1337" from-port="0" to-layer="1338" to-port="1"/>
		<edge from-layer="1338" from-port="2" to-layer="1339" to-port="0"/>
		<edge from-layer="1339" from-port="1" to-layer="1341" to-port="0"/>
		<edge from-layer="1340" from-port="0" to-layer="1341" to-port="1"/>
		<edge from-layer="1341" from-port="2" to-layer="1343" to-port="0"/>
		<edge from-layer="1342" from-port="0" to-layer="1343" to-port="1"/>
		<edge from-layer="1343" from-port="2" to-layer="1348" to-port="0"/>
		<edge from-layer="1344" from-port="0" to-layer="1348" to-port="1"/>
		<edge from-layer="1345" from-port="0" to-layer="1348" to-port="2"/>
		<edge from-layer="1346" from-port="0" to-layer="1348" to-port="3"/>
		<edge from-layer="1347" from-port="0" to-layer="1348" to-port="4"/>
		<edge from-layer="1349" from-port="0" to-layer="1350" to-port="0"/>
		<edge from-layer="1350" from-port="1" to-layer="1352" to-port="0"/>
		<edge from-layer="1351" from-port="0" to-layer="1352" to-port="1"/>
		<edge from-layer="1352" from-port="2" to-layer="1354" to-port="0"/>
		<edge from-layer="1353" from-port="0" to-layer="1354" to-port="1"/>
		<edge from-layer="1348" from-port="5" to-layer="1355" to-port="0"/>
		<edge from-layer="1354" from-port="2" to-layer="1355" to-port="1"/>
		<edge from-layer="1355" from-port="2" to-layer="1357" to-port="0"/>
		<edge from-layer="1356" from-port="0" to-layer="1357" to-port="1"/>
		<edge from-layer="1357" from-port="2" to-layer="1359" to-port="0"/>
		<edge from-layer="1358" from-port="0" to-layer="1359" to-port="1"/>
		<edge from-layer="1359" from-port="2" to-layer="1360" to-port="0"/>
	</edges>
	<meta_data>
		<MO_version value="unknown version"/>
		<cli_parameters>
			<caffe_parser_path value="DIR"/>
			<data_type value="FP16"/>
			<disable_nhwc_to_nchw value="False"/>
			<disable_omitting_optional value="False"/>
			<disable_resnet_optimization value="False"/>
			<disable_weights_compression value="False"/>
			<enable_concat_optimization value="False"/>
			<enable_flattening_nested_params value="False"/>
			<enable_ssd_gluoncv value="False"/>
			<extensions value="DIR"/>
			<framework value="caffe"/>
			<freeze_placeholder_with_value value="{}"/>
			<generate_deprecated_IR_V7 value="False"/>
			<input value="data"/>
			<input_model value="DIR/facial-landmarks-35-adas-0002.caffemodel"/>
			<input_model_is_text value="False"/>
			<input_proto value="DIR/facial-landmarks-35-adas-0002.prototxt"/>
			<input_shape value="[1,3,60,60]"/>
			<k value="DIR/CustomLayersMapping.xml"/>
			<keep_shape_ops value="True"/>
			<legacy_mxnet_model value="False"/>
			<log_level value="ERROR"/>
			<mean_scale_values value="{'data': {'mean': array([120., 110., 104.]), 'scale': array([255.])}}"/>
			<mean_values value="data[120.0,110.0,104.0]"/>
			<model_name value="facial-landmarks-35-adas-0002"/>
			<output value="['align_fc3']"/>
			<output_dir value="DIR"/>
			<placeholder_data_types value="{}"/>
			<placeholder_shapes value="{'data': array([ 1,  3, 60, 60])}"/>
			<progress value="False"/>
			<remove_memory value="False"/>
			<remove_output_softmax value="False"/>
			<reverse_input_channels value="False"/>
			<save_params_from_nd value="False"/>
			<scale_values value="data[255.0]"/>
			<silent value="False"/>
			<static_shape value="False"/>
			<stream_output value="False"/>
			<unset unset_cli_parameters="batch, counts, disable_fusing, disable_gfusing, finegrain_fusing, input_checkpoint, input_meta_graph, input_symbol, mean_file, mean_file_offsets, move_to_preprocess, nd_prefix_name, pretrained_model_name, saved_model_dir, saved_model_tags, scale, tensorboard_logdir, tensorflow_custom_layer_libraries, tensorflow_custom_operations_config_update, tensorflow_object_detection_api_pipeline_config, tensorflow_use_custom_operations_config, transformations_config"/>
		</cli_parameters>
	</meta_data>
	<quantization_parameters>
		<config>{
		'compression': {
			'algorithms': [
				{
					'name': 'DefaultQuantization',
					'params': {
						'num_samples_for_tuning': 2000,
						'preset': 'performance',
						'stat_subset_size': 300,
						'use_fast_bias': false,
						'use_layerwise_tuning': false
					}
				}
			],
			'dump_intermediate_model': true,
			'target_device': 'ANY'
		},
		'engine': {
			'models': [
				{
					'name': 'facial-landmarks-35-adas-0002',
					'launchers': [
						{
							'framework': 'dlsdk',
							'adapter': 'landmarks_regression',
							'device': 'CPU'
						}
					],
					'datasets': [
						{
							'name': 'facial_landmarks_35',
							'data_source': 'PATH',
							'annotation_conversion': {
								'converter': 'facial_landmarks_35',
								'data_dir': 'PATH'
							},
							'annotation': 'facial_landmarks_35.pickle',
							'metrics': [
								{
									'type': 'normed_error',
									'calculate_std': true,
									'percentile': 90,
									'presenter': 'print_vector'
								}
							],
							'_command_line_mapping': {
								'data_dir': 'PATH'
							}
						}
					]
				}
			],
			'stat_requests_number': null,
			'eval_requests_number': null,
			'type': 'accuracy_checker'
		}
	}</config>
		<version value="1.0"/>
		<cli_params value="{'evaluate': False, 'output_dir': 'PATH', 'direct_dump': True, 'log_level': 'INFO', 'pbar': False, 'stream_output': False, 'keep_uncompressed_weights': False}"/>
	</quantization_parameters>
</net>
